checkpoints/demo20/best_model.npz (npz, 587456 bytes, 8 tensors)

weight_0 f8 [20, 256]
-0.001958204428866862 0.23958058350966027 0.614082456207673 0.12836941353468673 0.1783866927445567 0.04911400004679424 0.3720269029295469 0.16763339816973138
0.23639370299800724 0.5708106451271023 0.07482655548090177 -0.08608630068328389 0.1407321359719412 0.3598363547215389 0.159197966652124 0.3331035041273409
-0.21104347148603206 -0.27159575772976413 -0.17189070995352868 -0.4031750216398209 0.03246810545469918 -0.13481867321339325 0.38878255551372026 -0.4081039355778279
0.4918917405399631 -0.3131886105011349 -0.38886662152192536 -0.2614208731560071 0.6151458671732578 -0.013017093549892358 0.165201983989416 -0.05799810634971779
-0.024896831629802472 -0.1595221481603635 0.015694915064374263 0.15706280967339578 0.5323539564645324 -0.5916192590964604 0.5053378616832248 0.16893575834790592
-0.11850760354525977 -0.1739544437681782 0.3274885131898372 0.07044865406765119 -0.48185257520085034 0.11250246277425024 0.36390511154946276 0.27076870759234734
-0.19785390629880908 -0.42612702149831994 -0.10620371717871874 1.0312765595550106 -0.4843246527288189 -0.27057668541762914 0.12209489100280314 -0.04020356069331597
-0.06619562590141459 0.6358108076074453 -0.272615769991706 -0.005785671874529715 0.06433180405177394 -0.25676080352784275 -0.4540563406770133 0.08487157741267465
0.5708134706687071 0.12639214171033158 0.025437334796138744 0.026034118413903556 -0.08259819834715784 0.37338326108692893 -0.16081247076631255 -0.42887539163709165
-0.5018481790152556 0.023766577017457196 0.3383947062513179 0.07674517883896455 -0.09792553830193411 0.14680492094593284 0.060661029035996336 0.2647573327984826
0.42067363117205087 -0.3009315151585715 -0.7377271006262919 -0.1110703244426873 -0.32059392277864035 0.26052442914045965 -0.2270410506751824 -0.5967869594883178
-0.18692135619803113 -0.47245406578643057 0.5022796867952941 0.14901545708069525 0.20479891134419062 0.16766616582885235 0.26415144736142093 0.35917103454219496
-0.17163413277314288 -0.45054876959495505 -0.2615771680529109 -0.013718427127901283 -0.8109820293249872 0.3587666112748687 -0.6006942206027436 0.18988367077833435
-0.052908874289240286 0.08930769308756364 -0.15119092796175912 0.06727133304976782 -0.14751315925802527 -0.1764612698968807 -0.2853179369728608 0.47923402426135936
0.11918200594684279 0.07033973249993757 -0.2761794273458781 -0.07415071736688596 -0.31170221844433377 -0.15554413741888218 -0.38518468125568256 0.4978908541506273
-0.23875651392802621 -0.27833123899126017 -0.4194869894094437 -0.24316027056834813 -0.15648567886742223 -0.015404927275403994 -0.20583574443126867 -0.5087606399816277
-0.4785510907304871 0.2135416329469468 -0.03881362534685524 0.20742514695920647 0.24511040522141447 0.047324166764975605 -0.3894008726795277 0.056936793074232904
0.4441480342589328 -0.1400209974090326 0.1091231717494492 -0.0018290127677757216 0.4331188501862998 -0.21388608246254173 0.3667366401775504 -0.1207100334059255
-0.21823090302855366 0.03938340153160871 0.10854510177772328 0.6017711806887284 0.10267314910214302 0.06535866606311852 0.5028982716182623 0.18904796284530853
-0.20417113243241378 0.42625633555563774 -0.23628984118732863 -0.20281185937854218 -0.2672199609687005 -0.2985570326039847 0.10936202191929391 -0.08066386501797312
-1.1030847337087402 -0.08321551521446716 -0.16511435926672038 0.2817489145974252 -0.1792887945650115 0.8036002270199333 0.44115305636533286 -0.1250989644079122
0.3618098079561819 0.1683720791315399 0.06909253993200362 0.2536838381860212 0.013977442921164122 0.0791458909728264 0.2603733839252079 0.6526983826381524
0.07909994309299043 -0.14401861254670092 -0.6417911080931447 0.6206833771197634 -0.08215348633797874 0.17018908020278367 0.6002797472015539 0.0740537126146243
-0.056672157048208965 0.4500131314258728 0.14809136860411984 0.18531660773940964 -0.4790586778785308 0.3847865283636147 0.11815744627596818 -0.4369907173787494
0.14963305076373504 -0.6512193174522815 0.7435372532723764 -0.34651255624221033 0.5097534626917269 -0.2580838692216128 0.1760726975431028 -0.28787489651405673
0.31803974208015523 -0.0750905799719976 0.1511133228611685 0.0027802024421439467 -0.43120506010116316 0.16253868433576996 -0.16330723841405254 0.3296959201515505
-0.07471023717845134 -0.021414858385969755 0.533297722160685 0.7524070322356146 0.2533654316923407 -0.09052725744601527 -0.11824405617371428 -0.2558044167969855
-0.19523696777381272 -0.08878162798777008 0.6230661613175906 -0.062072569634524864 -0.3850379548030611 0.017549454046906113 0.05630796644485528 0.013154371613496226
0.25190352383457554 0.023189176122391738 0.24233844162728385 -0.24489258191190813 0.5619671433607082 0.0796109675668523 0.12495610776040006 -0.245908529656853
0.1490183816177965 0.2081019836086376 -0.3705451129989178 -0.5273078155801184 0.0894648553513612 -0.15336421286733512 0.08171979823524128 -0.41015516941867686
-0.4942051593479423 0.06364113189164168 -0.11087853838173688 -0.6685220380476945 0.4254594543466537 -0.4137018486075606 0.8157153293857823 -0.19747061646160025
0.12513444819411565 0.5216871035076615 0.469345493630393 0.6261580486203242 -0.4796129148758284 -0.3557383665242325 0.0721282154330301 0.2660015073310564
00000000: 1c40 63ff a60a 60bf 801d 7799 93aa ce3f
00000010: a6b2 4e40 90a6 e33f 4216 78b0 686e c03f
00000020: 8692 b009 60d5 c63f 2215 f45f 7825 a93f
00000030: ec21 54ed 49cf d73f a29c 6ddd 0275 c53f
00000040: e9aa ad1b 2642 ce3f 35f2 a0af 1444 e23f
00000050: 6fad a948 d527 b33f dd7d 1176 c009 b6bf
00000060: 8373 bfb8 8203 c23f 2137 dc0f 8f07 d73f
00000070: 3227 2e56 9960 c43f 4c3c 1a5c 9151 d53f
00000080: 6f8d 08f4 7803 cbbf 95a0 4b2c d361 d1bf
00000090: ce49 dec8 8300 c6bf b474 209b 9ecd d9bf
000000a0: 2699 2ed6 a89f a03f b4ba 2b00 bd41 c1bf
000000b0: 6ff3 4b3a d0e1 d83f 0b3e 2bf8 5f1e dabf
000000c0: 8aaa b27e 277b df3f 6a40 e53d 480b d4bf
000000d0: db54 7cd3 30e3 d8bf 9d98 2c9d 1ebb d0bf
000000e0: 21eb b862 46af e33f 0ea3 afb8 b4a8 8abf
000000f0: 8403 3caf 5625 c53f ee01 0184 edb1 adbf
00000100: 19ff 7e16 8e7e 99bf 1110 abc4 386b c4bf
00000110: e1f1 a8eb 5312 903f a388 7b57 a21a c43f
00000120: fb29 1d2a 0b09 e13f f818 3083 8bee e2bf
00000130: 4d85 ab4e ba2b e03f ea56 9dda af9f c53f
00000140: a6e1 8da9 8356 bebf 8a35 7da3 2344 c6bf
00000150: 32d3 7d61 92f5 d43f 2e8d 4449 ec08 b23f
00000160: 3ec9 fe2e acd6 debf 88b9 551e f6cc bc3f
00000170: 6df0 3caa 384a d73f 99ea f845 4654 d13f
00000180: cd38 78dc 4653 c9bf 34bd 5145 aa45 dbbf
00000190: f408 ffb3 2a30 bbbf 01b9 86d9 1b80 f03f
000001a0: 377a 07d4 2cff debf 6a71 bbdf 2051 d1bf
000001b0: 19a0 dd5b 9c41 bf3f 1e99 b8a4 8f95 a4bf
000001c0: f883 6250 32f2 b0bf 22c1 23e8 8f58 e43f
000001d0: 403f 1f6a 8972 d1bf fcab c877 b7b2 77bf
000001e0: 8ebb 7e92 0c78 b03f 37fe 82dd c46e d0bf
000001f0: 00f3 6f53 420f ddbf 3ced 58c9 24ba b53f
00000200: 626d 949c 1a44 e23f c202 8f21 9e2d c03f
00000210: 40f1 2fa4 3e0c 9a3f dbef ab1c b0a8 9a3f
00000220: 660c 9cd0 2725 b5bf 0780 cfe7 82e5 d73f
00000230: 7079 5dc7 8095 c4bf f6fd 48c5 b172 dbbf
00000240: 86af 8de9 230f e0bf 1b83 1cfc 4356 983f
00000250: bf4a 1f45 42a8 d53f ad30 3d71 92a5 b33f
00000260: 5b33 73e8 a511 b9bf 1265 2def 80ca c23f
00000270: fede b35f f60e af3f 13b9 6fbd c8f1 d03f
00000280: 071b 0b18 51ec da3f 5646 fc41 7642 d3bf
00000290: a902 52dd 759b e7bf 6a96 09d3 1a6f bcbf
000002a0: e95b 685f 9c84 d4bf f5e8 bda7 6eac d03f
000002b0: ebeb bf5f ae0f cdbf afcf 35f7 e018 e3bf
000002c0: 86b2 e5fb 09ed c7bf 928e 5afa af3c debf
000002d0: a063 87d9 ac12 e03f 3a4a 6141 f012 c33f
000002e0: e166 3dc9 d936 ca3f 9ab8 70bd 1576 c53f
000002f0: 82ef e678 dbe7 d03f a3de c181 a8fc d63f
00000300: 04a9 9175 1bf8 c5bf ac74 aa81 cad5 dcbf
00000310: 1db9 8a29 aebd d0bf c366 ef1e 6818 8cbf
00000320: 6a06 b395 90f3 e9bf a9a0 943b 08f6 d63f
00000330: dd51 0c16 e338 e3bf c4c8 04ae 1b4e c83f
00000340: df1d 7b39 df16 abbf 64a0 1775 dedc b63f
00000350: 4f19 866d 395a c3bf 2e36 68af b138 b13f
00000360: fa15 5f11 b6e1 c2bf a4de 9b6b 4896 c6bf
00000370: 1aae 102a a642 d2bf 0550 552f c5ab de3f
00000380: d738 d041 b682 be3f b355 b2e2 c801 b23f
00000390: d6d3 117a ecac d1bf a9d2 109a 8afb b2bf
000003a0: aac7 93dc edf2 d3bf 7839 a6cb dee8 c3bf
000003b0: 2d74 3aa6 dda6 d8bf 1c7c e399 71dd df3f
000003c0: 4c90 83cd 928f cebf 3f0c 3bd4 2dd0 d1bf
000003d0: 971b 27f5 dfd8 dabf 4d87 e330 e01f cfbf
000003e0: 6f93 8304 b907 c4bf 82cd c256 9e8c 8fbf
000003f0: f20d 575f d358 cabf e3d1 c664 c447 e0bf
00000400: b9c3 09c1 94a0 debf a7b8 eb0c 5555 cb3f
00000410: 6a04 0227 61df a3bf 8565 473f e88c ca3f
00000420: 8cea 2a1b c75f cf3f 6bcd 2189 df3a a83f
00000430: cc50 4ca3 f1eb d8bf 4bca 62c0 d126 ad3f
00000440: 3063 6ee0 eb6c dc3f 2303 5042 35ec c1bf
00000450: 2151 e605 7fef bb3f 7a4a 6181 6ff7 5dbf
00000460: b633 3520 38b8 db3f b182 9f80 9e60 cbbf
00000470: 0fae f3f4 9c78 d73f 630b c74d dae6 bebf
00000480: c9f9 bd7f fdee cbbf f3bf 2aab 0f2a a43f
00000490: 72bc 469e 9cc9 bb3f f977 97a2 b541 e33f
000004a0: 6b2f 9299 c948 ba3f d453 4075 58bb b03f
000004b0: 7117 ba1d be17 e03f 17e4 e540 b932 c83f
000004c0: f7d0 4a98 4722 cabf 2d27 3ba7 c847 db3f
000004d0: f767 23da be3e cebf 00ca a22f bdf5 c9bf
000004e0: d8bb 4cc0 211a d1bf 4a98 c1f4 8e1b d3bf
000004f0: 815b 9143 26ff bb3f 7c9d 3816 63a6 b4bf
00000500: 3def 7f2d 3ca6 f1bf 62ad 5dac 9c4d b5bf
00000510: 8145 93a2 7722 c5bf b748 7899 2c08 d23f
00000520: 1a16 996a eff2 c6bf 337b c3d2 17b7 e93f
00000530: b2a6 6707 da3b dc3f 239e 722c 3e03 c0bf
00000540: 4ece 2253 e427 d73f 76f9 b65e 378d c53f
00000550: cad0 6777 0cb0 b13f 0918 2223 5b3c d03f
00000560: 8f29 d3a1 34a0 8c3f 6e50 57b5 e742 b43f
00000570: a649 2d20 f5a9 d03f 99a7 f2b7 e7e2 e43f
00000580: b229 b3d4 e43f b43f d1a1 73af 336f c2bf
00000590: 00f5 8381 8d89 e4bf 97ce bc62 a3dc e33f
000005a0: c3f1 12c9 0208 b5bf 40bb cd7a c1c8 c53f
000005b0: 7bd1 55df 7d35 e33f fdc2 d321 2ff5 b23f
000005c0: 844e 3b0a 2204 adbf bba8 8fe0 03cd dc3f
000005d0: e7be 7c70 a8f4 c23f 0dbe d260 74b8 c73f
000005e0: 479c 96ba e5a8 debf a8d6 d0ac 57a0 d83f
000005f0: bbbe 88ff 903f be3f 1607 f3e9 a7f7 dbbf
00000600: 5d29 b701 2d27 c33f 4764 dfe4 c9d6 e4bf
00000610: 6933 45a3 0ecb e73f 82ac 2d00 432d d6bf
00000620: 4314 697e e64f e03f 5da5 7b34 7284 d0bf
00000630: 9f43 d5d6 8c89 c63f 2881 77d4 8a6c d2bf
00000640: af00 c45c c35a d43f ada7 37e1 2239 b3bf
00000650: 9fdc d66d ae57 c33f 0bac 16d2 81c6 663f
00000660: fb44 c01b dd98 dbbf c24b c74e 11ce c43f
00000670: 7e1e 1868 40e7 c4bf ff3b abea bc19 d53f
00000680: 2d9c 5bc9 3520 b3bf 5533 aad1 c6ed 95bf
00000690: 17c4 7662 c610 e13f ad6f 97e9 b713 e83f
000006a0: ba8d c3a4 2337 d03f b590 205a cb2c b7bf
000006b0: ba65 3612 3e45 bebf 9c2f 147d 195f d0bf
000006c0: 8484 c763 86fd c8bf b56f b18c 64ba b6bf
000006d0: 554e 4372 28f0 e33f eb30 1ed1 f9c7 afbf
000006e0: 8f43 e63b 76a4 d8bf 81c6 c6ec 7bf8 913f
000006f0: 1414 c5d4 65d4 ac3f 5101 09df adf0 8a3f
00000700: 5577 27f5 2f1f d03f 0f76 4444 e7be 973f
00000710: 3228 ad30 f204 cf3f 611d 2cdf a358 cfbf
00000720: 2725 c584 a2fb e13f 8b40 1a66 6261 b43f
00000730: d430 449c 1ffd bf3f 2e81 5742 ee79 cfbf
00000740: 7690 c6c9 0813 c33f 4b79 eaf6 15a3 ca3f
00000750: 7278 81d9 02b7 d7bf 17f0 daa3 b4df e0bf
00000760: 9a1e e033 2be7 b63f 9f2c 5243 70a1 c3bf
00000770: 0c28 dbb4 96eb b43f 4f11 bc77 fb3f dabf
00000780: 067d 3aad 0ea1 dfbf a1af 2704 c94a b03f
00000790: f786 2d30 8962 bcbf 633e 4254 8864 e5bf
000007a0: 3158 8c4a ba3a db3f 1d1c 8451 177a dabf
000007b0: 85d9 d108 571a ea3f e8cf cf97 b746 c9bf
000007c0: bf61 4cd5 6704 c03f 93ee 0927 a9b1 e03f
000007d0: 8eb8 6aae c109 de3f 7272 9e9a 7c09 e43f
000007e0: e960 085e fab1 debf cadb 89da 6ac4 d6bf
000007f0: 5359 67a6 fe76 b23f 1f1c ab2f 2b06 d13f

weight_1 f8 [256, 256]
0.15104273988632283 0.13987281092703735 0.08395534776010906 0.07839549452183624 -0.1854212919424325 0.016143218580139472 -0.04415329449338422 0.07898101768013127
-0.22506471542649026 0.017286047592593487 -0.01941420874428137 0.09754112294037023 0.13813783441584487 -0.08214167639251087 -0.07947629656454532 0.01930467514450098
0.15214063024484642 0.003137954565770208 -0.11329067165674207 -0.05289939056309921 0.017988116432029373 0.021172282850182116 -0.06412056494658581 -0.0589406752156034
-0.0866360745213207 0.10097926998303111 -0.07105302170709313 -0.04085211197195842 -0.04358845558056722 -0.1419538790153412 -0.07636302681702697 0.10655197128914408
-0.10643928784547878 -0.08502239892341994 -0.11977267387554848 -0.008369201712631896 0.16550710751005657 -0.013101322408494613 0.007179202409978991 -0.06978515075768138
-0.005386979565033695 0.10711116093756691 0.011957889427087368 0.18701187629340912 0.11248086551496787 -0.009669308220828876 -0.0092402998324749 0.145079805208014
0.011508170577786112 0.12341543190661639 0.17569981890885733 -0.018050495151151535 0.03045324641146881 0.08462680994874287 0.06724803091338724 0.0665913914479584
-0.11653269969985618 -0.07672923182308657 -0.04374005640458382 0.10505602986025601 -0.10891260884749998 0.133564943590145 0.0689214933735138 0.10293316956821941
-0.08042745898246613 0.0057948609425380725 0.026423856969488017 0.025405858287443378 0.021983979175357934 -0.021613726138993487 0.013748877283408135 0.09143513615954199
-0.10399018115944068 0.13750546870634733 0.08525803772637022 -0.0855151580060621 0.03404568637159555 0.07986526892967073 -0.10928921830000092 0.004676934824848723
-0.006214105686292649 -0.056395926932523925 0.004669444169914906 -0.05305799368672076 0.12055694428095765 -0.05569609448057318 0.07306111563149303 -0.14631970861651822
-0.01315707705039994 0.002311206049912874 -0.019350132247263903 -0.03914700521009871 -0.055351240540080456 0.0665088751538384 0.08693552926171391 -0.006740760878612876
-0.0945803274703824 0.16047739945468575 -0.07797336378307895 -0.12921447274646242 -0.17831690930616906 0.008471044246637853 -0.01788938022797196 0.09126714087426999
0.05420154481311913 0.022289880558046215 -0.020722366687501166 0.09592233313136661 0.16530795814827906 0.08941511388516872 -0.04179348004245028 0.06817006888133971
-0.03604897476956063 -0.09814211245179022 -0.07941764435420137 -0.028536547909774626 0.00892773688417296 0.1781657086576511 -0.07831594047550045 0.11350539881766054
-0.028826909782431055 -0.17743859994547478 -0.04362396251186207 0.10562566568664129 0.03044105028544641 0.03646225629892283 0.11889354286712864 -0.0917339606222203
-0.09344853696097102 -0.1968686710277899 0.07967880720360875 0.05037917287498681 0.062361694006817646 -0.10396516078681749 -0.14229957966111947 -0.11905894792751164
-0.08019299381902747 0.14016527685359778 0.08800473388766582 -0.0405445700709047 0.025770507388017477 -0.06163199031723911 0.031910539013543 -0.10117327924235917
0.06629742649267512 -0.07016481551686325 0.07046926613953561 -0.039440600722235035 -0.06900730850584796 0.14238542412718375 0.01442795739870674 -0.03069185933800341
0.06671415982375928 -0.11580274632846455 0.09654527584637214 -0.012316647014811062 0.056503790799049415 -0.14193487874536123 -0.034188541816055004 0.00039562062155491936
0.09109980260665106 0.0616136762402756 -0.03352276394974803 0.02554866308062085 0.10945473589395169 -0.01855215480076719 -0.027149920397825107 -0.16714853257916795
-0.02314018736021669 -0.15319466031356743 -0.010567208558044024 0.08992099451979652 -0.18832662502474648 0.10930692255215804 -0.029430107713817412 -0.0012699382478221165
-0.043209450453691914 -0.15579279739996466 -0.0708976831350125 0.18500870775763453 -0.09602322755402573 -0.14053795826021917 0.01202217791349628 -0.00722244790312773
-0.031707048303296646 0.001615609574351019 0.05526422395971069 -0.051575859487531774 0.018387716253956594 0.09072770201685519 -0.08876980019142802 -0.2054207785776213
0.061859535137785276 0.22051044784234178 0.0009585432673973681 0.02225881183942733 -0.024014867648845386 0.14114383307174472 -0.007952585835769388 -0.013550926712417963
0.07993793591956551 -0.042711576793847704 -0.11300617952693857 0.07828153230575155 -0.05247363231223632 -0.08698245061415291 0.1854928568021433 -0.015813264048276595
0.04296842024693798 0.0019525987067469145 -0.07847700814123039 0.06090999154461219 0.02853279694364922 -0.05844312184787397 0.03435116923552461 -0.04581550357656957
-0.09552796135211337 -0.10642843228097569 0.022025720987768744 -0.031032498270418287 0.13353614607878037 -0.0053762612423050036 -0.07045482095081838 0.014065071995128296
-0.11768234189785563 -0.007832943065114598 0.028101438139780638 0.018571181973549566 0.1150052989565222 0.22977431707317414 0.05897139191683904 0.10306132158148514
0.22404641387966542 -0.08791524235560821 0.012940386570920281 -0.041746810369343405 0.07953153823766457 0.024693135374597733 -0.07296160329560746 -0.00017893038302838223
0.0930759211979767 -0.11593092437230233 -0.07305041209564728 -0.08153747924781224 0.027350918158395725 0.11304204983317175 -0.1794938794550963 0.008937802964775938
-0.08190663998567822 0.0889227366154092 -0.02102794497425562 0.012165031795407105 0.0013895676799131863 0.09961890852040634 0.18113538908468468 -0.10312483526289777
00000000: 3214 0e56 5e55 c33f eafe 432e 5ae7 c13f
00000010: b937 f400 197e b53f 3702 2025 ba11 b43f
00000020: f8f9 6f88 e2bb c7bf 265f 6a0f d987 903f
00000030: 1e30 b8b7 429b a6bf dce2 f097 1938 b43f
00000040: e2c2 1eac ebce ccbf 2c62 5904 6fb3 913f
00000050: a7a1 897e 51e1 93bf f243 0b7d 74f8 b83f
00000060: 3202 9424 80ae c13f 3d94 bea5 3c07 b5bf
00000070: 954a 8dfe 8e58 b4bf c644 9fd1 9ac4 933f
00000080: 56b0 a51b 5879 c33f 83e8 8f87 c4b4 693f
00000090: 0d24 b511 9e00 bdbf 7ec8 e400 a115 abbf
000000a0: 2538 2b0f 7a6b 923f bb59 b1d9 2fae 953f
000000b0: 5956 7291 346a b0bf 9d0c e9e0 782d aebf
000000c0: 670f b922 c82d b6bf baac 2606 c7d9 b93f
000000d0: c691 83e4 8730 b2bf 37c0 c869 91ea a4bf
000000e0: 3e43 67de 3951 a6bf 39a3 f471 8b2b c2bf
000000f0: de7d cdfe 868c b3bf 51de 0270 fd46 bb3f
00000100: f34c 4eec 9a3f bbbf bbb5 cd26 07c4 b5bf
00000110: 01fd 3f05 6ca9 bebf c3ee 313d df23 81bf
00000120: 9b70 013f 562f c53f 890e 3bba ddd4 8abf
00000130: c0de fe78 f067 7d3f fc2b 408c 70dd b1bf
00000140: 3a8a e550 a810 76bf f970 4315 a36b bb3f
00000150: 22f0 25c0 607d 883f b567 5252 01f0 c73f
00000160: 0304 d0c6 8bcb bc3f b3cf aa94 80cd 83bf
00000170: cf8a af0c 94ec 82bf 20d8 569d f991 c23f
00000180: d2a4 2582 9891 873f 6652 dc5b 2798 bf3f
00000190: 8c36 10e8 547d c63f c038 6739 d47b 92bf
000001a0: 35c0 93c5 222f 9f3f 833b 1845 1aaa b53f
000001b0: 264f 7ebd 2a37 b13f 45d0 7628 220c b13f
000001c0: e31e 2046 16d5 bdbf d1cd 53e5 86a4 b3bf
000001d0: 05d6 90bf 1865 a6bf 8b55 7fb4 f3e4 ba3f
000001e0: d83e 1f5d b2e1 bbbf 134e 4ef4 a718 c13f
000001f0: 6edd 07c8 d6a4 b13f 9018 f804 d459 ba3f
00000200: e5b2 07da e496 b4bf 4ea6 ba23 5abc 773f
00000210: 6191 1206 db0e 9b3f 68b1 e249 fe03 9a3f
00000220: af5d 60de f782 963f c18e a59b e821 96bf
00000230: c7c7 4f12 5f28 8c3f beb2 8207 4b68 b73f
00000240: 7756 2fbb 199f babf 7ab5 8e79 c799 c13f
00000250: 4a82 c183 78d3 b53f 66c4 f246 52e4 b5bf
00000260: 505e 12ab 6f6e a13f 59a1 23de 0c72 b43f
00000270: 8f66 67d2 60fa bbbf ce58 e421 1f28 733f
00000280: 74ec 244b f673 79bf 0f08 9b4b eddf acbf
00000290: 1b28 0160 4420 733f b807 5ad7 6a2a abbf
000002a0: 680e fee4 d1dc be3f aa33 9ed0 3284 acbf
000002b0: 0c1d 3f1e 22b4 b23f 3854 a2ad 9aba c2bf
000002c0: 0aad 23fd 18f2 8abf 1c18 c24c f3ee 623f
000002d0: e27a b364 85d0 93bf ed38 3a86 130b a4bf
000002e0: 214a d36f ff56 acbf 97f2 adc3 b906 b13f
000002f0: 7a1d 0a27 6841 b63f 917a 6138 339c 7bbf
00000300: 1b8c 5495 6a36 b8bf 28d7 33ff 858a c43f
00000310: a84d 68f7 0ff6 b3bf 1ad7 4e8f 198a c0bf
00000320: 0c9b e5a6 16d3 c6bf 9caa 0450 4459 813f
00000330: e971 19fc 9751 92bf 4e21 4189 485d b73f
00000340: 92e4 ba0c 4ec0 ab3f 733d 1d90 28d3 963f
00000350: 42c8 df7c 3e38 95bf 3457 c1b3 5d8e b83f
00000360: 79f8 01a9 cf28 c53f 85a8 e7ad e8e3 b63f
00000370: ebcb ef7b f465 a5bf e952 69f8 9773 b13f
00000380: 3512 61df 0275 a2bf 3c3e 576b d71f b9bf
00000390: fe05 3af9 b654 b4bf 5489 0d50 af38 9dbf
000003a0: 96fb 8e8f b448 823f ef04 fa49 22ce c63f
000003b0: 9c06 1973 830c b4bf b95e d797 b00e bd3f
000003c0: da87 0a2b cd84 9dbf f62b e8db 4eb6 c6bf
000003d0: d0e9 9e48 e155 a6bf e50a be9b 480a bb3f
000003e0: bf3f ba4d f02b 9f3f 8c3a af4c 2eab a23f
000003f0: 6ae4 51a6 ce6f be3f b213 ce78 e07b b7bf
00000400: 323e 1b4a 3eec b7bf 7bee d51b fe32 c9bf
00000410: 9fb0 1f8f d465 b43f 0d92 cb87 4ccb a93f
00000420: 1b9c 9038 dfed af3f 0fb5 80f5 759d babf
00000430: df84 7064 df36 c2bf 8b13 a5af a57a bebf
00000440: 8a30 d22d 8787 b4bf 8b7c 0f90 eff0 c13f
00000450: 37d2 f06d 7a87 b63f ec46 f804 42c2 a4bf
00000460: 0840 bb79 9563 9a3f 8290 996d 3a8e afbf
00000470: fefa eb02 9456 a03f be33 93f5 7de6 b9bf
00000480: 2852 983e def8 b03f 8f8c f943 52f6 b1bf
00000490: ce42 7119 460a b23f c722 79f4 8e31 a4bf
000004a0: 9cb4 3785 76aa b1bf f6d3 0682 af39 c23f
000004b0: 887a 67a9 678c 8d3f f5cc 70d0 af6d 9fbf
000004c0: a087 9fde 2d14 b13f 908a 44b0 3fa5 bdbf
000004d0: 75ed 57f2 30b7 b83f 84fa ff60 7839 89bf
000004e0: 6df4 299b 10ee ac3f 2bc0 2f0f ec2a c2bf
000004f0: beea fe19 2981 a1bf 1a6d 96a1 69ed 393f
00000500: 771c de10 5152 b73f f26a e0e8 d38b af3f
00000510: 4ae0 ab4d e529 a1bf 9a18 8dc1 6d29 9a3f
00000520: 0e8d 0ebf 3905 bc3f b8f9 8e08 56ff 92bf
00000530: f267 ca50 30cd 9bbf d03e 8084 1f65 c5bf
00000540: d6e4 bdaf 0fb2 97bf 20fb fbf3 e19b c3bf
00000550: b1a0 55b9 42a4 85bf c0b2 aff2 0f05 b73f
00000560: 7b42 b93b 161b c8bf 2a82 96d9 89fb bb3f
00000570: 6a2b 9818 ed22 9ebf e66c 82cf 81ce 54bf
00000580: 5a4a 2791 8c1f a6bf 8081 e4b4 04f1 c3bf
00000590: 1d53 6dbe 5926 b2bf 5faa a586 5dae c73f
000005a0: 6a3b 006e fa94 b8bf 2b81 49d7 25fd c1bf
000005b0: d4a5 b867 159f 883f ddec a718 4995 7dbf
000005c0: 23dc 07ff e73b a0bf d27d 3c92 5b78 5a3f
000005d0: 1670 17a5 974b ac3f 252a 86ab 2668 aabf
000005e0: 55e2 d5bf 3ad4 923f a7ed 0041 ee39 b73f
000005f0: cad3 b11c 9eb9 b6bf 6472 f462 3a4b cabf
00000600: 3ca0 b990 0dac af3f bd5f f4b4 af39 cc3f
00000610: 476a 1dfe d768 4f3f bab6 9793 03cb 963f
00000620: f7a0 ad7c 5a97 98bf 08a1 8949 0011 c23f
00000630: 7385 aa00 7249 80bf 388d 7b98 96c0 8bbf
00000640: 9df9 7b04 d076 b43f 5bf7 fab2 4ade a5bf
00000650: 3f69 5015 f9ed bcbf e24b 222d 420a b43f
00000660: 7de4 5ded d2dd aabf 7ab6 b65c 7b44 b6bf
00000670: 2bac cddc 3abe c73f 6fb0 b82f 5a31 90bf
00000680: 1859 71ef f4ff a53f 11b6 9ce5 cafd 5f3f
00000690: c95a 74b7 1117 b4bf f113 5e2b 982f af3f
000006a0: 2a0e f296 b337 9d3f b788 06c2 41ec adbf
000006b0: 2f52 e4f8 7996 a13f cbb3 0533 2175 a7bf
000006c0: 8f62 dc3d 8574 b8bf 43e7 02cc e43e bbbf
000006d0: 75ce 401d e98d 963f d70d bdb4 fbc6 9fbf
000006e0: bb01 1f62 b617 c13f 4103 5e23 6b05 76bf
000006f0: 0b4d d4bf 5309 b2bf 7f33 e101 26ce 8c3f
00000700: 5f9a c411 6e20 bebf 3568 5ed2 b70a 80bf
00000710: c8aa 1f97 9fc6 9c3f e0d8 e5ec 5204 933f
00000720: 1e8d e2bd fc70 bd3f 4a1f a5ac 3e69 cd3f
00000730: 7966 5d8f 7f31 ae3f f5cd ac0d 3a62 ba3f
00000740: 691a 338a 8dad cc3f 80bc bc02 9d81 b6bf
00000750: 6025 f548 7d80 8a3f 374e 7f82 d65f a5bf
00000760: 4839 bbcb 2d5c b43f e477 7a43 2849 993f
00000770: 3bb3 0494 9cad b2bf 3c7c 6749 e873 27bf
00000780: 5823 97d5 d2d3 b73f 9f2a c628 a6ad bdbf
00000790: 24fe e88a 6eb3 b2bf 8c83 c4e6 a3df b4bf
000007a0: fb05 060c e101 9c3f d534 1be3 52f0 bc3f
000007b0: 43c0 0bcb a7f9 c6bf ea55 749b fb4d 823f
000007c0: dd50 1064 d5f7 b4bf 1a4e a2f5 a3c3 b63f
000007d0: 3ab6 dd7f 5988 95bf d684 baed fae9 883f
000007e0: 715c 69ef 44c4 563f 588a 28f2 9f80 b93f
000007f0: 9e2b 22c6 712f c73f 630a dca2 6366 babf

weight_2 f8 [256, 7]
-0.09735679286456107 0.0013193419286098421 -0.018491817838425493 -0.039701089195502276 -0.0003655814935199338 0.06269258801905052 0.04039836668705547 0.12391500724994639
-0.028531132350412897 0.07775839143165648 0.03929817974848771 -0.04628973757619471 0.1151969778889671 0.19555147300973466 -0.01861425145820756 -0.011060549745640937
0.0594981120000573 -0.0621879218141179 0.05552250941632578 0.15015183692875048 0.0650546708323434 -0.05693448195438772 0.03561890197386631 0.02944715126935918
-0.10600244765920022 0.07521610860109793 -0.04039512471145432 0.13831670161956436 0.10911289560933454 0.1358168022102492 0.03332314260425812 0.08734289162769167
0.0863436673659148 0.14950868055696953 -0.03707775575966387 -0.04672821935805277 -0.14241910175013825 -0.029159265804554916 0.007428560129506092 -0.10561102984510913
0.01970397813559396 0.08289229644350221 -0.07348418051244594 0.03485172263143869 -0.01576227392410369 0.01593672016090835 0.058312691226322814 -0.031091053652193636
-0.037547721806019264 -0.09561154256815167 -0.06999283620820172 0.03758802421923425 0.01569407650112406 -0.10645446708874848 -0.07458114277583189 0.015166189989398076
0.13506068805249755 -0.0547459606877646 -0.10633508014913587 -0.06561189260294213 -0.008560659900819986 -0.0887028919511553 0.013657806243944151 0.05281715991092259
-0.010685769790499617 -0.015900402149161587 0.07650353948798844 0.07208898097200442 -0.059449487825543226 -0.01726910064726136 0.11623156614708305 0.03462903017134026
0.10270005440558948 -0.021316522105424503 -0.07593488990809047 -0.025996709460756228 -0.043386059218858936 0.03005723537994262 0.05113902601383927 -0.03558187609074466
-0.1083302743546299 0.011943434343631387 0.11441252669954195 0.15880070557468678 -0.17501715028251733 0.0562653718365193 0.12889861501930122 -0.047995171522829456
0.012475275784995583 0.0658388943378361 0.07173432661527403 -0.04981294383049835 0.12208418259362161 -0.0017308780502958035 -0.051650892244612875 -0.09234931204768701
0.06384897368785983 -0.0878467017997448 0.0950177994634514 0.07979305863785371 -0.12848569603388194 0.04899897063379191 -0.12366867622932877 -0.07550628621493265
0.16135220140161516 -0.003850129907496139 -0.04923010136622036 -0.09770121280159508 0.11775332449981757 0.10095508852772253 0.016096454803365717 0.017303896643626332
0.025963747356901407 0.032744701984327766 0.07206880666589843 -0.04832752106784583 -0.11533613099831529 0.10059316654446897 -0.10339748250460501 0.05044745963891474
0.05642591332329257 -0.01760891493117689 -0.030851132067736587 0.021057920491531157 0.10306590259364157 -0.14067813053709996 -0.006955788864203888 0.16237920907695097
0.07527517406274095 -0.0990428332163745 -0.07375979606391339 0.0902316655441565 -0.1133068081519822 -0.027869398165220344 -0.056928308671689375 -0.009562657975724349
0.09027258511379263 -0.01190965174623569 -0.054290309281940084 0.00988353178800758 -0.010593817473343918 -0.07879129276752042 -0.01719072421156586 -0.1416574537263449
-0.0444674427156171 0.11509727576061149 0.06822698402733705 -0.018329642848238913 0.08168652002949779 0.11858369307616883 0.00723080113846488 -0.06410341926483225
-0.0393024386122698 0.04086862181337315 0.08069323937945597 0.007530401072193106 -0.008344872275345265 0.08255100330570916 -0.07883214506886516 0.0038056654680549465
0.10448700647911606 0.004248453960691773 -0.015108470711257446 -0.08719763778229364 -0.022294919505752055 0.018506848284939283 0.06358352334108192 -0.12193958300852882
-0.05949082237028354 -0.029275397241264448 0.02842328828344507 -0.06594407911038913 -0.03226059675463918 0.13458371501100114 0.017995480079557098 -0.04048468932398977
0.04669475033334801 -0.12811276448857623 -0.041886013865297715 -0.07547905729595109 -0.07308836809476672 -0.09228406046963043 -0.014736741629399861 -0.02592224826314311
-0.04187956014884472 -0.15959615891706735 -0.0690191580265206 -0.06332602628697509 -0.12567515373833033 0.10441143662126066 -0.13832398176180669 0.14716713002720314
-0.1458060692942137 -0.10400846124689765 -0.014623056420900228 0.08703066700875936 -0.08150294279052248 0.22275794877526703 -0.11183499454842981 0.05611023908942963
0.032701415108392945 -0.07003797192723853 -0.12725361693288462 0.005097350902308697 0.011020425000330382 -0.12403507616009997 0.050298862251345354 0.04774526831668158
0.0697821398795353 -0.08665687116475533 0.19907331960843738 -0.03363688646446361 -0.0023390372674381324 -0.10087446404214197 0.005382621831701922 -0.09604515947212458
0.018526179057212273 -0.21415504231485083 0.056294482059491155 -0.11134107315447342 0.06167767649368808 -0.04526733693006796 0.05791516970668944 -0.00018553661455266717
0.009235626558682337 0.11828926888640466 -0.04533716463365471 -0.10348421063333602 0.06890307546913987 -0.029400917738546778 0.07343768103277033 -0.0847408855084469
-0.09802920842764555 0.023153498775894968 -0.06643484905284905 -0.07583434198824945 0.04091251609210965 -0.06120824680712195 0.012027695600751011 -0.16615943305196368
-0.1065649234991622 0.014435435485753979 -0.034054600664198104 -0.03307338995713676 -0.11776815651620845 -0.0029306823198929585 0.16642129357684632 0.009427427019470178
0.015759290304184218 0.06467589124940241 -0.13551818655381692 0.05544545737071539 0.1551608159889031 -0.06802553025278324 0.07140415677419121 -0.01672187153520616
00000000: 7d90 65f1 5fec b8bf 3a36 e19b b89d 553f
00000010: 0942 70e3 84ef 92bf 5ca7 6b7f b353 a4bf
00000020: c65e 068f 70f5 37bf ff50 3e17 9f0c b03f
00000030: f626 773f 18af a43f 6e43 9fd7 e4b8 bf3f
00000040: 7594 73e1 4337 9dbf 9543 3054 f9e7 b33f
00000050: 81c9 9f19 e41e a43f 9173 0fda 49b3 a7bf
00000060: f892 a194 8c7d bd3f c576 a1a6 d407 c93f
00000070: 1295 0245 9d0f 93bf ae6a 77db e9a6 86bf
00000080: 4390 6d5a 8976 ae3f ddb1 cb64 18d7 afbf
00000090: f41a 4544 726d ac3f 218b 85e6 2c38 c33f
000000a0: 404d ad43 6ca7 b03f 1881 0434 8426 adbf
000000b0: 51c2 3106 a43c a23f 2828 a6de 6427 9e3f
000000c0: ea01 fef5 f922 bbbf 36f8 92e6 5c41 b33f
000000d0: 4c69 1b77 abae a4bf d12a f996 5cb4 c13f
000000e0: aec5 369e d2ee bb3f d5c2 dee9 7162 c13f
000000f0: d9d6 5e1f bb0f a13f dd39 148f 1a5c b63f
00000100: 7fa5 8d5b 9e1a b63f f4ea bab6 1923 c33f
00000110: 8f2d cb08 dbfb a2bf a8e4 e2db c2ec a7bf
00000120: 5bd8 2b04 ca3a c2bf b113 0634 eddb 9dbf
00000130: f666 00ed 686d 7e3f 7d18 480f 5309 bbbf
00000140: 571e c696 472d 943f 94af 50f6 6d38 b53f
00000150: 5d06 13f8 dbcf b2bf e594 d2c1 15d8 a13f
00000160: 44f8 0e4c fc23 90bf ae1f 962f b751 903f
00000170: c781 843b 29db ad3f d793 894a 55d6 9fbf
00000180: ed6e 647a 7439 a3bf 6348 7380 ff79 b8bf
00000190: 57f0 77ee 0ceb b1bf 1259 7ccd bc3e a33f
000001a0: 98c4 40a5 1b12 903f c6c6 a896 9940 bbbf
000001b0: 64d9 1ef1 bf17 b3bf a939 1390 730f 8f3f
000001c0: f692 142b ab49 c13f 0fee 7b9d a907 acbf
000001d0: c277 a89b c638 bbbf 3353 f5e4 f0cb b0bf
000001e0: 3819 7352 4088 81bf 46a7 fd93 3bb5 b6bf
000001f0: a806 39b9 9ff8 8b3f dc53 f8cc d90a ab3f
00000200: 7d22 43be 6be2 85bf 4a45 e5ec 3148 90bf
00000210: 4c10 2168 bc95 b33f de3d ad67 6c74 b23f
00000220: 6a06 f3cb 2970 aebf 7797 0bba fdae 91bf
00000230: 4655 5d17 5ac1 bd3f 35fd 2770 e5ba a13f
00000240: 672c f8fe 8c4a ba3f 2fa2 3a95 ffd3 95bf
00000250: fed5 c70c 7870 b3bf 3310 c0a3 e19e 9abf
00000260: ec06 e592 b236 a6bf 3830 dceb 52c7 9e3f
00000270: 14b6 8ef8 e42e aa3f 9ab7 47a4 c937 a2bf
00000280: 6d14 8569 88bb bbbf 2637 439f cc75 883f
00000290: e160 6dac 234a bd3f 5a33 83de 9453 c43f
000002a0: 79ec 5944 f666 c6bf 57c9 de97 d0ce ac3f
000002b0: d0f8 00f4 bf7f c03f b9e8 1cb8 d292 a8bf
000002c0: 2485 0a2c a38c 893f c25d fc59 d1da b03f
000002d0: d92c d04a 2e5d b23f 7ac5 5609 1581 a9bf
000002e0: 1e37 99b3 e840 bf3f ceff a327 d45b 5cbf
000002f0: 06ea ff59 fc71 aabf ce8b 0d5b 34a4 b7bf
00000300: a25d df05 6858 b03f 1c97 4a17 1f7d b6bf
00000310: c4c0 3b25 1653 b83f e221 4c61 516d b43f
00000320: ac12 3c23 3872 c0bf 64d1 d1a0 6416 a93f
00000330: f9cf f117 c0a8 bfbf 4b80 ef45 6154 b3bf
00000340: 5a2a 145e 30a7 c43f 3aaf 37c1 4e8a 6fbf
00000350: 3880 b116 b034 a9bf d22b c359 f202 b9bf
00000360: 78d4 b8f5 1425 be3f ea62 9753 31d8 b93f
00000370: f815 d9cb 967b 903f 4801 b6d8 1cb8 913f
00000380: b834 1e97 3d96 9a3f 0fa8 47e0 e9c3 a03f
00000390: 8818 b1ef 1973 b23f 495f f784 62be a8bf
000003a0: f757 af2e ab86 bdbf 8b73 8248 79c0 b93f
000003b0: 2894 d8e5 4178 babf 927e a1da 3fd4 a93f
000003c0: 8aae bd78 dbe3 ac3f c063 fd46 1208 92bf
000003d0: 1d1e 1a6d 7097 9fbf 50e2 541f 3590 953f
000003e0: 00f0 f8e8 8662 ba3f 6baa f5b0 bd01 c2bf
000003f0: 7ac0 085b ac7d 7cbf c296 4488 d7c8 c43f
00000400: 96d8 ccda 3b45 b33f 6648 9101 df5a b9bf
00000410: c2a8 da07 ece1 b2bf 2765 9324 6c19 b73f
00000420: f549 6dcb ac01 bdbf 951d b7a6 cb89 9cbf
00000430: 9b49 ec0f b525 adbf d707 263a 9695 83bf
00000440: 7e03 caa8 1a1c b73f b7fd 0d66 1664 88bf
00000450: cb18 b67d f0cb abbf b243 632e d13d 843f
00000460: 5cd3 b31c 36b2 85bf 4a64 a589 aa2b b4bf
00000470: 3e07 22f9 719a 91bf e1a0 7ed9 d421 c2bf
00000480: 8291 66c8 6fc4 a6bf 1222 40db 0377 bd3f
00000490: ff24 1ad9 5277 b13f c37a 5282 01c5 92bf
000004a0: 6dfd 0c64 68e9 b43f 33de 993b 805b be3f
000004b0: 980c 9e66 0b9e 7d3f 13e2 4de9 1469 b0bf
000004c0: 4249 fc00 731f a4bf a1f7 3d64 bbec a43f
000004d0: c29f 24e8 4fa8 b43f 4117 4ba5 32d8 7e3f
000004e0: a961 18cc 1d17 81bf c633 7303 1022 b53f
000004f0: e0bd f1ec 572e b4bf 0baa 3117 0f2d 6f3f
00000500: 5b4b af13 a9bf ba3f 2da0 1dad d366 713f
00000510: 8b86 c79c 30f1 8ebf 523b 909a 9552 b6bf
00000520: 0a9e 93b8 7ad4 96bf b71b 8b90 75f3 923f
00000530: 7c7c 5081 0247 b03f c108 1cb9 6e37 bfbf
00000540: aa2a fcc0 9475 aebf 7420 eaa6 5efa 9dbf
00000550: da1b 7d96 fe1a 9d3f 70da 240f b6e1 b0bf
00000560: db6f 0500 7684 a0bf 8ef1 4507 0a3a c13f
00000570: a289 ab39 686d 923f 5440 45c1 68ba a4bf
00000580: 0e3a 27d3 5fe8 a73f e0db d6c2 ff65 c0bf
00000590: c729 6c67 1572 a5bf 1a78 9e72 9852 b3bf
000005a0: 515e af56 ebb5 b2bf ffbd a89d ed9f b7bf
000005b0: 3f72 c8fa 4b2e 8ebf 33b0 1da2 5c8b 9abf
000005c0: 2b99 6bda 3c71 a5bf d8d9 8e9d a56d c4bf
000005d0: f977 8552 3dab b1bf b460 e36b 2236 b0bf
000005e0: 52ea 9c99 1f16 c0bf 7bdf 9d39 b5ba ba3f
000005f0: dfb0 f5a8 99b4 c1bf 8baa 415d 5fd6 c23f
00000600: 8ca6 96f5 c5a9 c2bf af0d 906b 4ca0 babf
00000610: 013c c368 b1f2 8dbf 663b 8d4c a447 b63f
00000620: 3e24 d079 60dd b4bf e5f7 741c 5583 cc3f
00000630: 9f43 22dc 37a1 bcbf 173d b833 7bba ac3f
00000640: ccd0 d868 3dbe a03f 0bd9 e72e 02ee b1bf
00000650: 3821 83b5 d849 c0bf 1c16 bfb6 f5e0 743f
00000660: 342c b767 e091 863f 951c aa43 c3c0 bfbf
00000670: db83 cac0 c5c0 a93f f0f3 ea5b 1172 a83f
00000680: f0a3 a008 3edd b13f d355 a00b 252f b6bf
00000690: f2b8 9c0a 3c7b c93f c0b7 9b9e da38 a1bf
000006a0: 2730 2b12 5129 63bf d101 10ac e8d2 b9bf
000006b0: 1309 be8b 160c 763f 8233 df62 6a96 b8bf
000006c0: 12a9 aed4 86f8 923f 1805 82b3 6e69 cbbf
000006d0: 6e13 c85e a1d2 ac3f da66 e63b d980 bcbf
000006e0: 7408 de66 3794 af3f 9820 62c7 472d a7bf
000006f0: 3340 aa9f 0ea7 ad3f 355f 2862 9351 28bf
00000700: 6a8b 38d0 20ea 823f 47b9 559d 3448 be3f
00000710: 4632 cace 6e36 a7bf e092 52f4 f07d babf
00000720: b8d8 bbc7 a1a3 b13f 7845 a330 461b 9ebf
00000730: 9d6f 54d6 cfcc b23f 7592 e423 94b1 b5bf
00000740: 93df 3f34 7118 b9bf f42c 1f00 8db5 973f
00000750: a226 ffcf df01 b1bf 70d2 c022 e169 b3bf
00000760: ceb1 393d 7cf2 a43f 786d 90f4 af56 afbf
00000770: 0102 03fa f9a1 883f a4a6 7059 b644 c5bf
00000780: 8563 54bd d647 bbbf 3ac6 845a 5390 8d3f
00000790: b41b 43c8 9a6f a1bf 07af 77d0 feee a0bf
000007a0: aa50 bfcc 0d26 bebf 7546 0117 1602 68bf
000007b0: 08a2 a2fe 4a4d c53f 3856 dfd5 af4e 833f
000007c0: e1ca db11 3423 903f 777e c165 998e b03f
000007d0: fa84 a1f1 a858 c1bf 92eb 3cd4 5863 ac3f
000007e0: 7181 2543 4fdc c33f 3090 ba03 1f6a b1bf
000007f0: 80c3 24f6 8a47 b23f f18a 7ccd 891f 91bf

bias_0 f8 [256]
0.0007792774388615257 0.0047043995845531105 0.0008486898789652167 0.0016176733045418033 0.0013336619712580055 -0.0005160405946978583 -0.0004660946734402243 -0.0013410973697806818
-0.0006837894759396611 -0.001578630913517084 -0.0032194006982642544 0.00247481807513371 4.256398917899433e-05 -0.000784196226244939 0.00043231221570333016 -0.0014933743574574122
0.00039970507950870543 0.0008701524443871624 0.0015568282582768761 0.002995070778557116 -0.0012605021123018134 -0.0016066946382364336 -0.0009411557207663371 0.0005557696630544662
-0.0016192529545745033 0.0024667340621510763 0.0014108841506693798 -0.00040907301362081653 -0.003121935623958211 -0.0008056326367862896 0.00026198884728080856 -0.0014848797736694238
-0.0012856952743401024 0.0023677755413797014 -0.001994839220163153 0.0006134314807881223 -0.0010288380581488414 -0.00028586370656855846 0.0005784537634372188 0.00019403740749319255
-0.0009053749522138161 -0.001449019589366211 -0.003285170574118495 -0.0024703481363281287 -0.001306754465389326 0.00086971709604339 0.0018752183790326888 0.0012427360359998202
-0.0010308777925136668 0.002316537317088206 -0.0035646269751222885 0.002200210500941665 -0.0035737664549419265 0.002148176576969745 -0.0018620967904588066 -0.0004375289969620806
0.0016227713343535412 -0.005077893116783919 9.117297454305386e-06 0.001813047059363564 0.000393537283346022 0.0029746880155990716 -0.0009917946189751006 0.00019399271449593096
-0.0020741308009635927 -0.0022466602004019387 0.0041180211593216725 -0.0010611842336198207 0.0016390333067728133 0.0013854370306368923 4.081036311192265e-05 -0.0001944868895015574
-0.0010283471920029055 0.0007925499024480411 0.001864987038528799 -0.0012117890039075496 0.0007942560511761031 0.0019913964350419416 -0.002422546857173157 0.0010217340340626126
-0.0017148425827137204 -0.0008011277746752978 0.00027140766488225433 -0.0017167832955825623 -0.0030080191077249477 0.0003848673941048546 -0.001702300331354646 0.002903191745090983
-0.0029782482323704013 -0.0001151421699246145 -8.650507456610062e-05 0.0009600185483048429 0.0005642405987859205 -0.0007746431225911759 0.0005242183742033789 0.00013626177875271432
-0.0009125415657955124 0.0004456343975441587 -0.001601708516062218 -0.0013938940485953672 -0.0011653572655324453 -0.001558721115489768 -0.00027919404123611193 0.0020646464990965907
0.0033670769074539914 3.604509824549752e-05 -0.0003747254506916418 -0.0005291322394651885 0.0012004814715473103 -0.0012911617476645994 -0.0010404258853358376 -0.005076947713495957
0.0031018691728430807 -0.0011833834981031725 -0.004113168547409518 0.0011838470554371059 -0.0006145855522588439 0.001651750441754034 0.0028244841873703605 -0.0030048966726365783
0.0022462626503401764 0.004170951577344665 6.334401288130237e-05 0.0007631505119619114 0.0018679287706413763 0.002377907301131768 0.0009103394095780823 -0.00041985711559463536
0.0017718668311011345 -0.001260097300729969 0.0008819243211133183 0.0016429709499248052 -0.002160965094368982 -0.0007945727752148704 0.0005078924206959154 -0.0004123950867185149
-0.00022273471364318866 -0.0015682432420432912 -2.741433950050169e-06 -0.001908240176903584 -0.004024819829528454 -0.004420788014942377 0.0007091369799536385 0.0008077927046149349
0.0028412859853205004 0.0018916764095041312 -0.004143291243751553 -0.00025564695262669557 -0.0015678245663555519 -0.0008642323966301208 -0.0012771973245448856 0.00037661991098095557
-0.0016959535096687068 -0.0015880371093744505 0.0008323373254868025 0.0027533079628517775 0.0004292190798169499 0.0013591901834644278 -0.002575363617622826 3.618305295757641e-05
0.002618926516539438 0.0008846948438662327 -0.0006126689157703205 0.00040376367625715847 -0.0019594977396362604 0.0010974028964383423 -0.0008632061670425395 -0.003182451104908935
-0.000715788298384611 0.0017533638793889392 0.0018567788008802776 -0.0023387095375618327 0.0030909362993499353 0.0003340679945037421 -0.004231931940080598 0.0004380898515145703
0.0011590728195748946 0.0024192117662581902 -0.0005435908291020644 0.00034124717405017725 0.0014881191797957592 -0.0021632412702041783 0.0016255710328648824 -0.00014894161891979083
0.002455704228562159 -0.0026242955761059594 -0.0020073979226064415 0.001640243837437989 -0.002005801741602069 -0.0026457980797733724 -0.0008898608479590608 0.0020690236292151927
0.00012986925747196358 -0.0004483423260610475 0.002556565732399646 -0.00016425395438171773 -0.00011417744249346552 0.004054227831373429 -0.00029712965180057676 3.435161227384368e-05
0.00010831091951476581 -0.001464297643407192 -0.001138571324595499 -0.0019490969242411554 0.0015148056647047866 -0.0016814873369929732 -2.657592059919112e-05 0.0004871922347154655
0.0011837131280838823 -0.0019976789362584567 0.0035262109113131115 0.0006503839472140908 0.00225069332866328 0.00016945425990700852 -0.0004754133035803388 -0.0013504231808057828
0.0016453710158514196 -0.0006408358062616691 0.0002953219070624712 0.00037420236279189144 -0.0008998832157646828 -0.00014617347337106556 0.0008717929291900769 0.0012512571902615337
0.00026039459733546077 0.003220427087767989 0.0024429485922977086 0.0020636781522513433 -0.00047382689765980163 0.00041152513528481925 -9.149940573922835e-06 -1.783195989363034e-06
-0.0012419665519468955 0.0019066934661891178 -0.0007159580959176405 0.00027149932473344925 0.0007702388084965817 -0.0017912341754610912 -0.0007402795547897413 0.00021783756694800216
0.0002468101153005649 -0.00010741227520066112 -0.0008929886914298841 -0.001641416738171888 0.0013186871964730783 -4.927228326655056e-05 0.0017432805374787688 0.0036905923649336596
0.0013683575817915413 0.0018758173558792194 -0.0017224570752000252 -0.0012951142467112272 -0.0012036058602251296 0.0016510399686649239 0.0004137416464278367 -0.00015549764709790458
00000000: 0358 a58e 0d89 493f 4ebb cea5 eb44 733f
00000010: e426 26a3 53cf 4b3f a856 127c 0381 5a3f
00000020: 05ef 3aa3 c8d9 553f 972a 23bd dce8 40bf
00000030: 468c 1761 c58b 3ebf 536f 0356 f8f8 55bf
00000040: cc8d dfb7 0a68 46bf 573c 5809 42dd 59bf
00000050: 6cc6 c696 925f 6abf e4ab 47d6 1146 643f
00000060: d9f5 3688 d750 063f 7470 9b92 50b2 49bf
00000070: b3d3 fed3 fe54 3c3f 6c67 a981 aa77 58bf
00000080: 01d8 993e f031 3a3f 684c 4525 5e83 4c3f
00000090: 643e 1b9d cf81 593f 2e24 6161 1e89 683f
000000a0: aef8 53d6 eda6 54bf 1baf 413b f752 5abf
000000b0: 17e7 4385 fcd6 4ebf 5c5f 7243 2236 423f
000000c0: 3b61 f79e a387 5abf 65eb fec3 1d35 643f
000000d0: 3bc6 4652 ad1d 573f 90e0 1537 1bcf 3abf
000000e0: c1b9 f66c 2c93 69bf f461 eee9 2266 4abf
000000f0: 34d1 ee87 712b 313f 6aee 3f84 0954 58bf
00000100: 5f78 fac9 9810 55bf 32bd 76d0 9565 633f
00000110: a79d c326 7b57 60bf c135 fc12 d619 443f
00000120: d41e 0274 42db 50bf 8ace 5445 ffbb 32bf
00000130: 5bd7 83ff 6bf4 423f ee48 86a3 d06e 293f
00000140: c865 bae7 d5aa 4dbf de88 d8ef a0bd 57bf
00000150: 2511 af85 80e9 6abf 8585 910e b23c 64bf
00000160: 6700 56ec ec68 55bf 17d6 fc3d b77f 4c3f
00000170: b167 1767 3cb9 5e3f b6a2 75a8 695c 543f
00000180: 47d4 eb99 d0e3 50bf 9618 8a80 21fa 623f
00000190: 1d97 fa88 9033 6dbf 12e3 aa04 2d06 623f
000001a0: 4743 8541 bb46 6dbf f19d 9c84 0d99 613f
000001b0: 50d8 4934 3382 5ebf 6923 a6bb 84ac 3cbf
000001c0: 86f8 d573 6596 5a3f 441f e88d 8ecc 74bf
000001d0: e2ab 13d2 cf1e e33e ae6b de74 78b4 5d3f
000001e0: ac98 00c3 75ca 393f eb06 c577 5f5e 683f
000001f0: 4e71 fb5c e33f 50bf e78e 95ba 506d 293f
00000200: 9c02 a67e c4fd 60bf 971c c082 9667 62bf
00000210: e7a0 41e3 0ede 703f aef6 04e5 ed62 51bf
00000220: 7ff7 c69c 9ada 5a3f 6126 2faf f1b2 563f
00000230: d0da 3366 7965 053f 25f5 e9a8 e57d 29bf
00000240: 20df bf63 33d9 50bf 2bcc aaf4 63f8 493f
00000250: 6be4 a095 528e 5e3f d246 0d89 9cda 53bf
00000260: ad8b d9e1 b306 4a3f a5e3 fad1 4250 603f
00000270: 3169 c9f0 72d8 63bf 8b90 bc90 76bd 503f
00000280: 48f2 df33 9218 5cbf 9b7e cbcb 5840 4abf
00000290: 79d3 670b 77c9 313f 1456 f706 b620 5cbf
000002a0: d082 30f6 45a4 68bf d55a f8de 0039 393f
000002b0: d3a5 1210 f7e3 5bbf b481 2c33 6fc8 673f
000002c0: 5ba0 3cd8 d665 68bf f3c7 b76a 0f2f 1ebf
000002d0: 0e63 63dd 41ad 16bf a4f3 5e22 3875 4f3f
000002e0: 9e3c 9d75 317d 423f e635 5570 2d62 49bf
000002f0: d618 f762 762d 413f 16f2 51c4 2fdc 213f
00000300: 12e6 3517 f4e6 4dbf 9435 d629 8134 3d3f
00000310: d2f7 6d6c 0d3e 5abf 3160 9456 6ad6 56bf
00000320: afd5 fdd5 dc17 53bf f938 bc0d c089 59bf
00000330: 44b0 be46 194c 32bf 691e 20a6 e0e9 603f
00000340: 3293 6ba6 4595 6b3f 4f7a 2925 e4e5 023f
00000350: e851 428e d98e 38bf 1d29 f6d4 ae56 41bf
00000360: 9b56 392a 2fab 533f 5065 b95e 8627 55bf
00000370: 6304 b1c9 dc0b 51bf e297 49c6 90cb 74bf
00000380: 4130 ec54 1769 693f 5e17 125b 7863 53bf
00000390: 8d11 4e46 f8d8 70bf d688 bd18 6a65 533f
000003a0: c261 7c6c 8423 44bf 1422 3988 f10f 5b3f
000003b0: 0776 cf66 5f23 673f e089 fa9d b99d 68bf
000003c0: 90d0 e213 c166 623f d1e5 e249 8f15 713f
000003d0: a818 dada f19a 103f 249a d23e c501 493f
000003e0: 865c cb3e a99a 5e3f 39c5 eb42 d57a 633f
000003f0: 3be4 06ff 7ad4 4d3f 9ecd 9994 0884 3bbf
00000400: d8a4 ea85 bf07 5d3f 3a08 922c 3ba5 54bf
00000410: 58f7 f00e 1ee6 4c3f 9c97 e29f 1eeb 5a3f
00000420: 9841 0f4d dfb3 61bf 7343 bb0a 5c09 4abf
00000430: 6473 1bab 82a4 403f d5ae 1569 d706 3bbf
00000440: 09be 1e9f bc31 2dbf dcb1 f35b b0b1 59bf
00000450: 1041 9f40 2fff c6be 9011 c649 bd43 5fbf
00000460: bb51 a458 547c 70bf 72ca 253f 881b 72bf
00000470: c38e 9211 ac3c 473f 6843 c79f 4178 4a3f
00000480: d64c 56cc 9b46 673f 7451 0f14 44fe 5e3f
00000490: ef46 3c46 8ef8 70bf d3bf 044d 0bc1 30bf
000004a0: b154 41cf eeaf 59bf 6207 99f0 b451 4cbf
000004b0: c44b 532f f4ec 54bf 4122 6033 a2ae 383f
000004c0: b116 0337 58c9 5bbf 2e35 c6dc b504 5abf
000004d0: 5a67 cdcb 2646 4b3f f81e 00f5 1a8e 663f
000004e0: c43e 1fe9 1921 3c3f 2200 c558 db44 563f
000004f0: 627b 6ad0 ed18 65bf 1c6f a43b 68f8 023f
00000500: 733b a777 4974 653f 85a4 eeb5 5bfd 4c3f
00000510: 9ce5 6e7a 7013 44bf b017 ebc8 0776 3a3f
00000520: 6296 aa56 5d0d 60bf 164c 3f63 d7fa 513f
00000530: 8f65 ea20 1949 4cbf 68a1 556d 1512 6abf
00000540: c4c8 8caa 7774 47bf a813 4721 24ba 5c3f
00000550: 6ba7 710e e56b 5e3f 9746 511f a128 63bf
00000560: 9e34 3bca 2952 693f 64b7 6c1c bbe4 353f
00000570: 4834 8194 8055 71bf 093d c095 edb5 3c3f
00000580: 10f3 a3f6 80fd 523f 69b5 616d 74d1 633f
00000590: 9cd0 ac6a f8cf 41bf cf59 d073 2d5d 363f
000005a0: 47ec 6ccd 9f61 583f 08c8 4850 a5b8 61bf
000005b0: 3a4a 1a9b 23a2 5a3f 1c64 b9c3 a685 23bf
000005c0: 62d9 352b fc1d 643f aec9 94f5 8b7f 65bf
000005d0: 5b55 af8d d171 60bf eba9 e968 aedf 5a3f
000005e0: 57f4 3c9c 786e 60bf dea9 2e07 a4ac 65bf
000005f0: 2980 b79e b128 4dbf 96e4 4e9a 0ef3 603f
00000600: c8b3 5c6d b005 213f 476f baa0 ef61 3dbf
00000610: 734e bec6 81f1 643f 4d74 80b9 7287 25bf
00000620: 01ec 9a86 51ee 1dbf 78f8 237f 2a9b 703f
00000630: d89c 1c23 0279 33bf 7207 0669 9802 023f
00000640: bab6 af6d 9f64 1c3f 80e0 5c9f b5fd 57bf
00000650: 167c 9ca6 83a7 52bf ca65 f7e2 1aef 5fbf
00000660: c67c 8a32 8ed1 583f 0cd7 be47 ab8c 5bbf
00000670: 868b 7b5b ebdd fbbe ea25 08b7 baed 3f3f
00000680: 8ce0 114b da64 533f f356 5fb6 6f5d 60bf
00000690: 0357 5f11 00e3 6c3f 0e89 3de4 d04f 453f
000006a0: 6b8a adc7 0b70 623f 7fb1 4902 f135 263f
000006b0: 3f36 4997 1c28 3fbf 9db5 6dd9 1520 56bf
000006c0: acca fbac 2ff5 5a3f cb6d 3d6a b8ff 44bf
000006d0: 3c8e c0ee ad5a 333f 8beb 07e9 1286 383f
000006e0: 50d6 af7d c47c 4dbf 39ac 4993 c428 23bf
000006f0: 4f25 540f 2191 4c3f fdf9 812d 2780 543f
00000700: 5894 9447 b210 313f 89fb aca0 b961 6a3f
00000710: 7a4a e909 3c03 643f 9167 8cc5 d8e7 603f
00000720: d0ac 8707 7f0d 3fbf e124 5eff 3ef8 3a3f
00000730: b45c be41 5630 e3be 3095 93b9 c4ea bdbe
00000740: a22a 4b6e 2f59 54bf 487c 2b85 403d 5f3f
00000750: 9b1c bb4d e475 47bf 744e 7ab8 00cb 313f
00000760: 009c 0d3f 3b3d 493f 794f ff0c fb58 5dbf
00000770: 9be8 253d ea41 48bf 2dca a673 6a8d 2c3f
00000780: 4b2e a05f c92c 303f bc2d 32d6 5028 1cbf
00000790: 8b8d d99c ee42 4dbf 705a 69cd 99e4 5abf
000007a0: 99f9 7a98 f99a 553f 1f77 07c3 36d5 09bf
000007b0: 7cbe 5b39 d98f 5c3f 4107 54b0 bb3b 6e3f
000007c0: eaa7 08c4 4e6b 563f 0ce3 978c bfbb 5e3f
000007d0: 08c2 a133 8238 5cbf 9dab 6355 1a38 55bf
000007e0: 5beb a4f3 49b8 53bf 9614 deaa f60c 5b3f
000007f0: f980 24d7 6e1d 3b3f 95e3 269e a261 24bf
