checkpoints/large/best_model.npz (npz, 587456 bytes, 8 tensors)

weight_0 f8 [20, 256]
00000000: e68d 3681 6443 a6bf c414 f0fa 3eb5 d6bf
00000010: ab46 f91f d047 bebf a5c8 42dd 6ad6 aabf
00000020: 1037 e679 6d03 dbbf 7cd4 29ea 82ce d63f
00000030: af04 4816 e04a c83f 2ffa da3b b81b d5bf
00000040: b869 988f 11ce e1bf 71fa 89ee e73e ce3f
00000050: 7866 6dbc bfb8 e0bf 6e3c 5741 8765 933f
00000060: e18e 5527 d95b c1bf 795e f8dd c83c d03f
00000070: ac5c b670 fc1a d03f b703 6d67 296f cfbf
00000080: 54bc c7b9 2559 d13f 0866 5159 dce1 b7bf
00000090: f66c ca12 c59f 54bf 6286 2bd2 04c8 913f
000000a0: a673 550d 6283 e63f 1ca5 7e40 1326 95bf
000000b0: 55e0 df2b 03c2 e0bf 3819 8edd 9270 cbbf
000000c0: 702a 91b6 6720 ce3f 4c6b 47ba 2905 b6bf
000000d0: c62f 2274 8160 6cbf 061d 95dc 8913 bebf
000000e0: cb18 0d6c 2b8d ecbf 626c a24e 16f5 d0bf
000000f0: 7d1e 63e1 9680 9cbf ea7b fe11 f474 e2bf
00000100: 7596 882d e023 d8bf 2740 bc77 8e60 c0bf
00000110: cc38 d41c 7345 babf 7c9f 16f9 14fc be3f
00000120: edfb 334f 4444 b7bf b20e 2065 7429 bb3f
00000130: 4966 404c 2e23 cdbf 9582 9bde 18ed ae3f
00000140: 90c6 baf8 fb1f de3f 0aaf 4cf0 6007 bc3f
00000150: 8ec6 ab2c 589c b5bf d659 f29d e690 d2bf
00000160: 334a c895 5ba6 a23f 8146 9cbe a42b a9bf
00000170: 57d7 730f c90d c73f a4b1 036d d9b1 e2bf
00000180: 85f6 7d96 0c85 aebf 346c 8393 d436 c13f
00000190: 922e a0d8 9c68 a43f a311 a42a bc0d b9bf
000001a0: b7e0 9a66 2863 bdbf 2475 332c 11c0 d5bf
000001b0: a88d e0d7 4dbc be3f 4093 8788 c0fe c23f
000001c0: 2540 29c7 7b90 dcbf d8c5 b249 31bf ce3f
000001d0: 50fe d4e9 c710 cbbf 0bff b0ed f051 bebf
000001e0: e59e 1b4a 3308 e33f 653a 94aa 437f df3f
000001f0: b4da 6af1 9ffd dcbf 7a4a e13d 1392 d9bf
00000200: f5e9 527f 7307 d4bf 8846 67b7 bb40 e03f
00000210: a25b b555 f0db c7bf 93c4 69e0 40f5 ddbf
00000220: 22d2 2a5f 049f d73f 04ab ecb7 f35b c73f
00000230: 8a1f 8b57 38a2 e63f ec84 ee52 44ec c63f
00000240: af75 dc88 e283 8fbf 731f daa6 e966 b33f
00000250: 3505 aee8 e485 c1bf 7057 64c0 ddcb d93f
00000260: 22ff 9f70 3fc9 da3f b131 1074 77c1 dfbf
00000270: 80ce f9bd 3009 d23f 86e9 72dc 49b5 d6bf
00000280: be33 1e80 7955 e83f 6d14 5029 125f de3f
00000290: 787c cfeb 044e d6bf 5ff9 75c5 a5cc b23f
000002a0: ee6f d5cf 94b9 d33f 37bb adf0 a8d2 c8bf
000002b0: 4161 e9e3 a312 dabf eacb 8b5f 9f1e 9e3f
000002c0: fce4 f113 80a3 abbf eb09 c4ae b058 d2bf
000002d0: 969e 2785 7851 da3f 0dc7 04ee 5841 d9bf
000002e0: 25ef 3400 e022 a9bf 5e61 e14a 72ea ac3f
000002f0: ad46 99cf 7e45 b83f da7e 8758 6142 d63f
00000300: a364 8097 054f b6bf bdc6 d68f e317 eabf
00000310: 0213 11bf 3065 bfbf 0002 d563 12b4 cf3f
00000320: f4fb 976c 9e90 acbf 3c74 d6c3 aff7 a5bf
00000330: 1b08 83a3 63e8 c33f 416b 4ffb 7885 c93f
00000340: f89f 5193 9404 e2bf af2e c002 a6a4 84bf
00000350: 2370 1193 71a4 b1bf cedc b76b a6cf 7b3f
00000360: 607b 5f09 8510 e4bf edf1 efd2 3e2e da3f
00000370: 8620 dad3 1a5f 70bf 802d 715b a2a1 c03f
00000380: cac2 2f19 7101 e23f 5eb8 576e 5221 c13f
00000390: 64e5 f4b9 d5e9 dfbf 52e2 ac18 73bb 9abf
000003a0: e22d f3d5 a9de cb3f 4ea0 9450 2bf0 963f
000003b0: efc4 0607 5283 e13f 8589 05c7 c0ef d1bf
000003c0: f76e 9998 735a d83f 2c24 df1f 0f4e d23f
000003d0: 9329 8905 bdf7 a13f d112 cd74 1624 be3f
000003e0: b05e eb7c d98b d3bf 8e3a 528f 3957 b8bf
000003f0: e181 25f4 2f39 c93f 5fa2 9b18 f8e4 9ebf
00000400: 8fe0 c916 ef8a 8c3f bbb5 1088 dc54 d33f
00000410: 380e 9cc1 c01c e3bf 5dad 4904 a0cc be3f
00000420: 832e 3592 3fdc e13f e80f d962 a04d c0bf
00000430: 309f 3e1a a64e d9bf 585a 1a7b 29ae b9bf
00000440: e629 a33d 3679 debf 022c 504d dc24 b13f
00000450: 4990 d721 88e3 42bf 3dc9 55ab ae38 ba3f
00000460: a81b 9a3e 4dcc 94bf 65a4 b46e 63a6 ad3f
00000470: 2bc1 6f78 6d34 c33f cf7f 1874 291d d9bf
00000480: 2571 1524 3a37 bb3f 557d 72ae 5173 dc3f
00000490: d0fe e892 5420 d3bf 47e3 7467 e7f5 b73f
000004a0: 0d14 55b1 de3c d93f d16a f23c 05b1 d7bf
000004b0: ef19 e18d efb7 ce3f 58c2 158a a328 b2bf
000004c0: d5ee 8389 91ee d43f 1098 19d7 36e2 d0bf
000004d0: a4cc 9f49 a138 71bf 8838 25da cab3 dfbf
000004e0: 0d42 6155 3c03 c23f a3c7 c1ec ce46 c33f
000004f0: be89 9319 0c0f c63f 4306 b902 3b6e c43f
00000500: 3f2d 097b 34ae 8dbf af18 c427 b4fb dcbf
00000510: 0948 2863 51da d33f dab8 b050 d481 87bf
00000520: e307 988f db6a ba3f 7d79 036b 4b9a a7bf
00000530: 68e8 3fe4 87c0 e33f 623b 02e9 d687 c7bf
00000540: 1c09 ee25 cdef c5bf 307a 6e2d f7c1 debf
00000550: c469 04e9 43cd a03f 8a44 138d 9ef4 e23f
00000560: d324 182f 0a75 aa3f 4d6c eadf 31c2 b13f
00000570: 8708 0ff6 de8f d33f 8121 d923 69a9 a53f
00000580: 37d4 e8b0 0fd1 d83f 42e5 3f5e 9bab db3f
00000590: aaea 411d 29c2 c6bf ac48 e6b4 ebb9 dcbf
000005a0: f115 4aeb 7c58 cc3f 41ae 10e5 0247 b53f
000005b0: 76dc 7df2 d600 d5bf 002c 1640 1dff cabf
000005c0: edd8 8d11 46eb ccbf 99c6 d32d 2b5c a43f
000005d0: 68c5 61ab 37a3 d33f f548 b302 5ce7 d53f
000005e0: 3c6f 63df dd18 d03f cfc9 4f4d 986c b9bf
000005f0: 446b c46a 5293 e63f eb75 bf72 1c33 763f
00000600: f26e 614f bc15 c0bf d136 64f5 3e99 dbbf
00000610: d757 68b2 d21c bcbf d68c 22d6 7c71 c13f
00000620: 255d 033a 240d e0bf bdd1 edef 2b80 d3bf
00000630: e41d 5add e792 c2bf d2a1 2c5f 2b5f d0bf
00000640: 7aa9 4183 4396 d1bf 712e 033b 96c6 d63f
00000650: c2a4 9792 9d31 e0bf fb18 9f7f 4694 ab3f
00000660: 2583 3226 b04e c43f ee9c a16f 7999 c3bf
00000670: 120e 2cc5 d680 b0bf 15de c6d0 39af 8dbf
00000680: 6343 309a 3118 c83f 9fd2 2fcd f3fd df3f
00000690: 96ee 30c1 9b44 dbbf b925 a22a a45b d2bf
000006a0: e5a6 7bc8 164c d1bf df7b 3b97 7dfc 99bf
000006b0: 10f1 c09c 7637 c2bf dd36 46fe 9c5c cb3f
000006c0: 8f3a 14b5 0366 ccbf fe76 97dc 37cd d2bf
000006d0: af00 1191 7d61 cebf 0325 a98f d931 8a3f
000006e0: 1655 424c 0061 d43f 828d ebd8 db04 5bbf
000006f0: a693 818b 8252 c8bf edb6 b208 905a d5bf
00000700: de87 1ecc 0635 dd3f 3b64 e9fe cc80 e1bf
00000710: 7a90 def3 db44 a8bf a0bf d2f6 dc25 ce3f
00000720: b634 8e8f 8392 b2bf 4f75 b5fa bd7a c7bf
00000730: 3a1f c182 22ab c53f 1c2b 6bfd 2b6d d6bf
00000740: ef0a 0634 ee93 e1bf ade3 85c5 2b61 bb3f
00000750: d54d c38b 5eaa d4bf 8097 b05e d185 b13f
00000760: ed56 e0ae 528e 93bf 423a fd70 acc4 b63f
00000770: e07c 1f6f 9c44 b2bf 3926 c333 1e29 c43f
00000780: bbcc f251 5460 cdbf ec5e 6d25 b4a4 cf3f
00000790: dd1c 8b90 eba9 d8bf 6986 f3f2 96ed d73f
000007a0: 9503 f8d7 4802 e43f 3c0a b320 1f62 a73f
000007b0: 1422 9643 aa9e df3f 1ca2 a97e af4b e23f
000007c0: d9b3 0f9b 783d b5bf 8b8a e7b7 91f3 823f
000007d0: c654 0dac 57a0 d1bf b821 bfdf 9be4 cebf
000007e0: bf5d 0fb2 a075 b33f de37 3717 ebdf e0bf
000007f0: 4eb4 1f33 bc56 d03f 149e ab9d eaa8 a93f
-0.043482914708217454 -0.35481237893720796 -0.11828327923401598 -0.05241712523401646 -0.4220842066214212 0.3563544546844424 0.1897850140376582 -0.3298168739819713
-0.5564048580738961 0.23629473826800365 -0.5225523643704966 0.018941987383922436 -0.13561548634162704 0.2537099998166706 0.25164710051599104 -0.24557988691415542
0.27106612341498715 -0.09329011135687193 -0.0012587952179846074 0.01736457379127499 0.7035379658151342 -0.02065305787224246 -0.5236831528591305 -0.2143729764758946
0.23536392607123302 -0.08601628110720333 -0.003463986243394476 -0.11748563418688115 -0.892232619321271 -0.26495893172404383 -0.027834279543439856 -0.5767765380331842
-0.37718967863688785 -0.12794667097523524 -0.10262221769173435 0.12103396493205126 -0.09088541921299483 0.10610129803540749 -0.22763613436909427 0.0604026576745628
0.4707021645545888 0.10948758951843388 -0.08441687670326756 -0.2900940458725051 0.03642545894048901 -0.049161098735692306 0.18010819677845788 -0.5842101220310281
-0.0596088346201045 0.13448579027940044 0.0398606314120943 -0.0978658298591371 -0.1147942781925647 -0.3398478442812396 0.12006079216421617 0.14839941660388867
-0.4463185734684905 0.24020973299552284 -0.2114496127851333 -0.1184378223706483 0.5947510192317763 0.4921425977526382 -0.45298002792280134 -0.3995407203957836
-0.31295478280995265 0.5079020101640745 -0.18639949974996478 -0.4680940810713505 0.36908063214949227 0.18249365311324806 0.7073022565682419 0.17908529328727896
-0.01538826923529765 0.07578907321487609 -0.1368986259586024 0.4030680064037062 0.41853319166692604 -0.49618326505949556 0.28181093742680474 -0.354814973146539
0.760433912496971 0.47455266985372796 -0.34851191547745186 0.07343517371007156 0.3082019834162101 -0.1939288306416189 -0.4073877073001491 0.02941369076411241
-0.05398178332775136 -0.28666321818323465 0.4112225818957794 -0.3946134876633643 -0.04909420015834901 0.056476184502289625 0.09481041496590122 0.3478015293639892
-0.08714327763336142 -0.8154161271433719 -0.1226377932044436 0.2476828563176383 -0.05579085422140642 -0.04290532365414676 0.15552945598580056 0.19938576003081646
-0.5630591275521502 -0.010079667052216605 -0.06891546097307404 0.006789827424191942 -0.6270165618005699 0.4090725955900599 -0.003996949000459554 0.12993268456407847
0.5626759998250119 0.13382940662217185 -0.4986471477492016 -0.026105688458502314 0.21773264834187872 0.02240054778408789 0.5472803246722416 -0.280258364064274
0.3805207243183157 0.28601434814896964 0.03509321873260087 0.11773815490330299 -0.3054107398906849 -0.09508094548275833 0.19705771847931344 -0.03017032289690957
0.013936870463325838 0.3020545319330627 -0.5972598821103423 0.12030983071024566 0.5581357818241063 -0.127368973031593 -0.3954253441138347 -0.10031375174944779
-0.4761481859137845 0.06696869742897607 -0.0005764403064714231 0.10242740328775297 -0.020310599275514513 0.05791006780993583 0.15003746395769588 -0.3924049028155396
0.106311448869239 0.44453851734029587 -0.2988482889813726 0.09359594608112075 0.3943402034531694 -0.3701794715104088 0.23998827388477603 -0.07093259927001705
0.3270610659526317 -0.26380702024323543 -0.004204397229830157 -0.49534865668545836 0.14072374504986876 0.15059839783094472 0.17233420609325195 0.1596139682097136
-0.014492425923114836 -0.4528627765979633 0.31020006831488495 -0.011478098595116771 0.10319301849088407 -0.04609904939001106 0.6172522981644422 -0.18383299233797873
-0.17138065673868474 -0.480588716856718 0.03281604976128308 0.5923607592941533 0.0516741926658796 0.06936942784015905 0.30565618542835477 0.04230812609290791
0.3877600886947365 0.43234905437528337 -0.1778003113612006 -0.44884770074817015 0.22145043839206793 0.08311479656611544 -0.3281762474138711 -0.21091046933392477
-0.2259299836839043 0.039765691131731624 0.3068370031024501 0.3422460581179075 0.2515177423026562 -0.09931327712528247 0.7054836354539948 0.005419837118066688
-0.12566331745153253 -0.43122838939676195 -0.10981480460790692 0.13627586799439112 -0.5016041882580892 -0.30469797545017824 -0.14510820682720216 -0.25580868048066663
-0.2747963697244341 0.35587077868397105 -0.506056581795882 0.053865626410287214 0.15865136971572116 -0.15312116575953588 -0.06446592630168649 -0.014494373020041565
0.18823833492981654 0.4998750213410776 -0.42606252542803114 -0.28684333957115943 -0.27026910379809826 -0.025377237658968595 -0.14231760648716163 0.21376383224235598
-0.22186323491810753 -0.2937755254950928 -0.23735017379113318 0.012790393540074612 0.3184204811780814 -0.0016491076418610755 -0.19001800357650928 -0.333652504438631
0.4563614838936 -0.5469727495902882 -0.04740035392686166 0.2355304913703522 -0.07254812483570813 -0.18343329183236753 0.1692851198624739 -0.3504133200446391
-0.5493079200826666 0.1069514615281963 -0.32289851807328535 0.06844814836276036 -0.019097606586078553 0.08893850096249259 -0.07135942185367439 0.1575048210855117
-0.22950223924053667 0.24721385791303108 -0.38537110438887884 0.3738763210841172 0.625278875173637 0.04567048334276477 0.49405914879074087 0.5717389558677186
-0.08296922479321668 0.00925363390428415 -0.2754115276523631 -0.241351589442514 0.0760136065213066 -0.5273337796622817 0.255293893743162 0.05011685537993685

weight_1 f8 [256, 256]
00000000: 4f62 f4ac 9b65 a9bf b49c 58ef 6737 b4bf
00000010: 12be 1a1c 0a22 b1bf 4236 e4f9 9cd5 c13f
00000020: f292 9e02 58d3 b53f 2790 7885 10a1 c03f
00000030: 6d6f 0e19 117d a03f f4f0 f588 0c76 b5bf
00000040: 11f0 c7d0 d72c ab3f 5eff 4b38 83ef ba3f
00000050: 6ccc 254d ba4b a93f 7637 59f2 a565 bbbf
00000060: 9761 86c7 7fa6 c2bf 5f8d e49c dfe3 aa3f
00000070: db42 72aa bb9e 9abf 17b2 79a8 3da2 9c3f
00000080: 1a9e 64d7 d5bf b1bf dde8 8312 a504 7a3f
00000090: 9106 cc6b 915a b5bf ca4e 1427 b294 953f
000000a0: 6274 2b23 f135 af3f 299f 8152 e111 b13f
000000b0: bd3f 0c7f f3c5 bdbf 40f1 eda4 b363 a53f
000000c0: d8a4 5280 bef0 abbf 3aae 6fb7 04ec c03f
000000d0: 16a1 b0f5 c358 b33f 07aa af2c 5732 703f
000000e0: d37a c3f0 fcf9 c63f 1304 735a dc9d acbf
000000f0: 08c7 f013 8c86 63bf f7dc 7730 fd60 ae3f
00000100: d834 26cf 88ae c63f 7daa e590 6751 c03f
00000110: 6873 7849 1419 b03f 6bab 25cf 8028 b0bf
00000120: cc45 d45d eabd b4bf 3e98 5d3a a2d9 b03f
00000130: 599b 07ba 4c9b bebf 0f2a a2f7 b464 9b3f
00000140: 18a1 8481 3a09 b53f 8f1f a1b9 7795 c1bf
00000150: 9f6c 0a5c c63e ad3f d804 5f52 9466 b03f
00000160: 04a4 a651 c09c a7bf 7f4e 102c cdf7 63bf
00000170: 8658 ca03 f7ba c2bf d46a c1a9 a1cf 8dbf
00000180: 028b 0c22 ae8b c2bf 8f5b 0ad0 9142 aebf
00000190: 7c9f dd8b a5ae a4bf ba64 456d 5f0d bbbf
000001a0: 0cf3 7c8b b33f bdbf 57d0 da60 c7ac babf
000001b0: 4d55 711c e988 bc3f 1cb0 2336 9129 7e3f
000001c0: 9851 8ad1 e5a8 bc3f f683 10dc 898f a0bf
000001d0: 5f52 8a4c 2220 9ebf 97c2 491d d343 a3bf
000001e0: 40ee 12c1 3058 d0bf b333 a7a5 7308 ad3f
000001f0: cdf8 7624 3cb5 73bf 1b34 fa36 a235 6b3f
00000200: 375d b051 39d7 c6bf 4cd3 8aef 3f9d 80bf
00000210: 394b e6ed ff21 a4bf 9271 365c 72fc 873f
00000220: df73 2a8f 6d66 81bf 3a4c a51d 2e51 a6bf
00000230: b821 5c7e 81e1 a73f cf2a 4b0a 3285 b33f
00000240: a3f1 2394 3d5c a9bf d1c7 1d95 ba8a c0bf
00000250: c605 0bd5 ba22 bfbf c4b1 f689 7613 a43f
00000260: 7b3b 1101 0ab5 bd3f 2a24 74c6 bb04 c5bf
00000270: cabd 42af d9c9 b6bf ab9f 970a 1527 a2bf
00000280: a89b 238c b769 c7bf 9bba 164a 4d8b 88bf
00000290: e1a9 2247 ead6 a13f 83b6 195a 77be a53f
000002a0: a638 6d5b f898 9ebf 8055 0ee9 0725 a5bf
000002b0: f973 8bb2 0ae9 b6bf 5479 934c f5db c3bf
000002c0: 33f1 313c 311e 97bf fdb5 195c 8109 a53f
000002d0: 3ef6 ea62 7305 73bf c908 f5b1 3631 b93f
000002e0: e3ae cf7c c62c 9f3f 045c a4e8 bb31 a63f
000002f0: fe99 675e 31e3 953f 1cbc 4c00 7a33 c53f
00000300: b47f 3d61 2d01 a6bf 6d01 49ae e8fc b23f
00000310: 0795 4556 9b1f 943f 3ca8 409c bb32 b13f
00000320: 23ea 2f7b edd2 9c3f 1ec7 0968 a01d 5e3f
00000330: 365d 704b 72ae a53f 3835 aa22 7b76 a73f
00000340: 236d 4694 e9cd ab3f 740c 411f 19a8 c03f
00000350: 7bb8 72d6 4739 913f eb2f c802 2ed7 b9bf
00000360: 7f62 ed91 bdfa 853f 533b bc50 5cac a3bf
00000370: 2f97 167a 4e87 acbf a2f1 f1dc 9e37 9fbf
00000380: 9154 3bdd a719 b2bf 0c6c 5bbd f584 c9bf
00000390: 43c1 b767 ba71 ba3f 8ae3 fb56 ec5e a6bf
000003a0: 3717 2d46 dc8c c3bf 1da2 0ded 4358 8d3f
000003b0: 99b3 2e09 f784 b13f 7108 e295 70dc 92bf
000003c0: 2c57 7b3f 502a b7bf d358 1bce b3fc bebf
000003d0: 8c2a 48a9 70d7 c73f d873 f2cc f618 c0bf
000003e0: f954 f30e 6260 c2bf 38a6 ea8e f6d2 94bf
000003f0: 596f 4318 8fd4 ad3f cbde 2809 71ce c33f
00000400: 7b63 9d66 60fa 99bf 2edd b161 8c27 91bf
00000410: 8322 67ef 30fd bcbf 3646 f085 b83b b83f
00000420: 91e9 7395 d2be 91bf 2f46 80d6 c7b3 63bf
00000430: bb8e 74d7 2ff3 9e3f 65f8 5691 8711 9c3f
00000440: 4a63 6955 a1af 90bf 3126 29d8 da56 bf3f
00000450: bd8a 07be 9d2c c2bf a5c8 5325 da8a 923f
00000460: 2ed3 5f66 bf07 a83f 19c9 c191 aa0d 98bf
00000470: ca52 0c39 8f20 a63f 4987 5072 62ee ac3f
00000480: 31aa 4d2f b04f b93f a637 10f1 c74c 88bf
00000490: b8a2 3d46 7d77 93bf 00be 764e 55ec a63f
000004a0: 76b0 6d65 e35a 93bf e966 a962 7e57 c1bf
000004b0: 1435 d104 d7de b33f 92c0 5356 71d2 c4bf
000004c0: 82d2 0b4f 6293 a13f 907e 1aa7 78b0 cc3f
000004d0: 1f48 47d0 2b25 b03f 967e 8b19 13b4 b0bf
000004e0: 239e 71c2 7bac a3bf 57c6 2420 060f 9f3f
000004f0: 3021 206b f941 803f 1463 d3a3 b658 b43f
00000500: 9e7a 5413 357c c13f 777e 13fb 2cd1 c03f
00000510: d5ab bf85 de21 bbbf 20cd 9739 c2f0 633f
00000520: b91b 7970 95d4 a13f 6318 4be2 457b c03f
00000530: bad8 0d73 41e8 983f 2e4b 36cd 425f b0bf
00000540: 3f3a edf3 5e2a a73f 93a2 2c86 aa09 c43f
00000550: 2be6 1928 f962 a2bf 7bb6 2db7 5c99 afbf
00000560: 6092 c05b f8d5 5dbf 0399 4cf9 b789 a6bf
00000570: a69d e84c 03e1 b23f f1d8 7392 eec1 abbf
00000580: 574b c8c4 fbed bc3f 80b7 76d4 29c2 a43f
00000590: 7498 123f 8e1c ae3f 4e42 686f a6ad b33f
000005a0: f4e5 da1f cc35 b33f f5ca 6965 846f 9abf
000005b0: 76d9 9b4f 2c28 b5bf 25c4 18df 89a2 9abf
000005c0: d060 7082 9e94 b23f c62f 5253 2a2e c3bf
000005d0: 4627 9d9b dfa9 c6bf 4f5b 143f 4bb7 913f
000005e0: 39ed 7c26 0539 b13f e6df 0da9 ba61 b53f
000005f0: 61e9 3470 74d4 b4bf a7d0 4a2a 4b0e b8bf
00000600: 002f 395c 43eb adbf e9c3 8289 8f90 a1bf
00000610: 9f8a 2ef4 c225 97bf 4908 9251 c1e4 813f
00000620: 70d9 ddc0 77af be3f 164f b6a9 1306 5c3f
00000630: 08ab ad72 e95e b53f 00dd 6088 5e4b ab3f
00000640: df3b 5f25 f732 aebf f6be 4905 8350 ab3f
00000650: e274 59d2 a4e1 9e3f aa3d 3685 60bc 823f
00000660: b0ce 1df3 6131 8b3f 1ecb 654e 4f83 75bf
00000670: 34ff 4ead f5d9 b6bf 3381 7b14 424f cb3f
00000680: 1fb7 4e96 fc2d b33f facd 8877 d381 a73f
00000690: 7a04 f45d 8a13 a1bf eb6c 760a b51c 7abf
000006a0: 17cb 42c7 0da5 bcbf 6e0d fb65 390d a53f
000006b0: b7ea d38d 4518 a03f 8a16 5210 8a5c 97bf
000006c0: 4bd6 db68 1519 413f 01e4 bafe e07a 98bf
000006d0: 4d71 184c 4457 a6bf b777 840e acb9 b3bf
000006e0: 2d52 98e2 5846 b7bf a055 75b9 a8ac b2bf
000006f0: dae9 8b52 f5e2 b0bf 4217 3a09 9c44 ba3f
00000700: 1f9b dc7d f04d afbf 6393 f7e1 fd12 c7bf
00000710: 4a03 acc3 0830 a23f 6c40 a80f 3781 a93f
00000720: 8105 f030 24f1 b43f 1995 9cc7 d847 933f
00000730: acc6 37f9 e566 b7bf 3a7d 0593 585c b6bf
00000740: 5925 b860 66cd aa3f 9bad 7fba 8ef8 c03f
00000750: 2107 fa8a 3dd4 b9bf a851 87c2 8870 893f
00000760: d7b5 cdfe b303 aabf 1cf3 2b5c 77b0 b3bf
00000770: 5a1e e72a b9a8 4f3f 5b06 dd72 bebb 89bf
00000780: 8a63 5e14 4d11 c7bf 1cc3 36a4 b682 933f
00000790: 6d51 f22e 1e6b a03f 0c01 9c3c 79e6 ac3f
000007a0: d382 1b94 9dbe a3bf d563 8181 ecd0 c2bf
000007b0: ab33 e6eb a4d8 98bf 13d1 d984 f237 aa3f
000007c0: 7295 3b34 fd19 7abf 498f cb4f 637a b23f
000007d0: a17e 2575 0864 bbbf 4e6e ad5e b646 b33f
000007e0: 9dbc 5e47 109e a13f af91 e930 1a56 9fbf
000007f0: 778d f570 a02c b63f d423 f930 ecdc 9b3f
-0.04960333334219468 -0.07897042840396545 -0.0669256514181529 0.13933145715457057 0.08525610031081124 0.12991529957901202 0.03220418387283428 -0.08383253425376208
0.05307650016399646 0.10521717190203847 0.04940588180297642 -0.10701977888785827 -0.14570615045955712 0.05251978674120993 -0.025996143606394333 0.0279626497344215
-0.0693334246503742 0.006352085889597539 -0.08341320878755655 0.021075042376721233 0.06095841936414882 0.06667907966914001 -0.11630174495462504 0.041776288874617595
-0.05457110706749696 0.13220271069381956 0.07557320354738226 0.003954258466345901 0.1795040298083764 -0.05589188198201369 -0.002383493032106613 0.05933371750500698
0.17720136751851245 0.12748426985793407 0.06288267892564436 -0.06311802918723479 -0.08102288046600065 0.06582082676831733 -0.11955718557110852 0.02675135384974153
0.08217206632673812 -0.13737389148650123 0.057119559035720295 0.06406523715033374 -0.046117792098193916 -0.0024374968784373614 -0.14633071599081776 -0.01455618190100464
-0.1448877016310562 -0.05910163559490577 -0.04039494831414367 -0.10567280214071931 -0.11425325541945258 -0.10419889559381211 0.11146408981706664 0.007363860351897979
0.11195217481355824 -0.032345111955017034 -0.029419456407213548 -0.037626836133204104 -0.25538271765592313 0.05670510670788733 -0.0048115109743191555 0.0033214729554118644
-0.17844311226574813 -0.008112430093527266 -0.0393218973068969 0.011711972655398726 -0.008496147090506 -0.043588105315074135 0.046642347979346466 0.0762511515742219
-0.04953186448435367 -0.12923366814680873 -0.12162368489500527 0.03921099123121821 0.11604368711526362 -0.16420695486184061 -0.08901749161554232 -0.03545442346859259
-0.18291372626046365 -0.011984447310934334 0.034842797454377246 0.04246876692637349 -0.029880409794082262 -0.04129814834520129 -0.0894934354686966 -0.1551500915438263
-0.02257611207868244 0.04108814477227083 -0.0046438700944100835 0.09840719074876171 0.030444241874575517 0.04334819044941443 0.02137448443127176 0.16563344015728
-0.04297773181929135 0.07417158370026807 0.019651820316899406 0.06718037190208376 0.028148375171421002 0.0018381182163946306 0.042346545895436113 0.045825813275863714
0.054305362081516394 0.13012994791106147 0.016820070709109274 -0.10093963210982763 0.010732155814978881 -0.0384243820718583 -0.05571980705580725 -0.030485613093775073
-0.07070397521177287 -0.199370114764719 0.10329785377667115 -0.04369295656028445 -0.15273621965951076 0.014328509017745234 0.06843513464146013 -0.018419036052826635
-0.09048940229271513 -0.12104343206314931 0.1862622095653318 -0.12576184279615066 -0.1435663769722522 -0.020336010430275858 0.05826232119736003 0.15473759600876344
-0.025369173300848296 -0.01675242754251121 -0.11323839039608612 0.09466126699432995 -0.017329492923616355 -0.0024050620159037565 0.0302245593312722 0.02741061997016238
-0.016294976080050184 0.12241905000078003 -0.14198657778532278 0.018107803848530186 0.046934109923233755 -0.02348963274602864 0.043217158998378816 0.056506229833998285
0.09887219576709395 -0.01186519817749938 -0.019010503208309187 0.04477182944117075 -0.018901398721411465 -0.13548259561030498 0.07761901729209725 -0.16267220225518436
0.034327575825874326 0.22413547667837408 0.06306718668864207 -0.06524772046713631 -0.03842531918126848 0.0303307492369583 0.007938335973464022 0.07947865962649941
0.136603006781077 0.13138353595330773 -0.1059855534110022 0.0024341386276717364 0.034825010280250486 0.12876199292640242 0.024323485038131955 -0.06395356664715443
0.045245139385418735 0.15654498626215183 -0.03591135611072745 -0.061716935501732594 -0.0018210339903898184 -0.044019459898025935 0.0737459242596886 -0.05421395814657782
0.11300633959062388 0.04054384916831477 0.05881161231927559 0.07686844081786967 0.07503963258468344 -0.025816029252790213 -0.08264424270223522 -0.02601066040205437
0.07258024868531554 -0.14984635418329456 -0.17705912683805475 0.017300773358410123 0.06727630796097096 0.08352247836398838 -0.08136680354519889 -0.09396810324216408
-0.05843554020665742 -0.03430603555296569 -0.022604986337351304 0.008737097074348681 0.11986492594392018 0.0017104331990127112 0.08347949075475125 0.05330939688468028
-0.05898258525086652 0.05334863128234517 0.030157637919150278 0.009148363175681979 0.013277783614945221 -0.0052521798992184714 -0.08926330071608107 0.2133562660228648
0.07492045087448361 0.04591236910018988 -0.03335220715417449 -0.006375033560654257 -0.11189352144974084 0.041116517733395294 0.03143517833992376 -0.022813946958669486
0.0005217890299877374 -0.023906245753753556 -0.04363454274082077 -0.07705188135557149 -0.09091716320137584 -0.07294706847945642 -0.06596310868545832 0.10260939812914407
-0.06114150558851449 -0.18026708158063362 0.035522722135289245 0.04981395784500439 0.08180452532544359 0.018828761275604487 -0.09141385397358687 -0.08734658803358722
0.052348326975400546 0.13258537393936085 -0.10089478152260913 0.012421673237363276 -0.05080950246233911 -0.07691141128811946 0.0009661583078974343 -0.012565124397613639
-0.18021548742833843 0.01905331971437639 0.032067244749813685 0.05644587387905817 -0.03856365616753057 -0.14700084994799903 -0.02426393213095294 0.05120809432711062
-0.006372441366442204 0.07217999170421509 -0.10699513301869469 0.07529773532353909 0.03440905448166485 -0.030601891742109973 0.08661844976227494 0.02720994042309484

weight_2 f8 [256, 7]
00000000: 8ee7 f762 e206 bf3f 1b9d efbc ee2e 8c3f
00000010: b4bc 5dfb 0684 af3f 55aa 5fbe 5c10 c43f
00000020: d775 2912 04df b3bf 0e7d 17bd 2e2b bc3f
00000030: 24e1 8ab8 b972 bebf d663 8a8e 7dfc b8bf
00000040: 7e9e 0727 b4a7 abbf 3ce1 3482 e4ff c6bf
00000050: 74d7 5dcb d9dd 71bf c3e7 f28b 5d05 b8bf
00000060: e01a ae9f e04f bb3f d921 ccc7 0f19 b93f
00000070: d657 a857 5dcf 8d3f 542b 2862 f103 8f3f
00000080: c88f 5c0e 9044 b63f 35ef 8d2d 8960 acbf
00000090: 87d4 4ced c563 a0bf 21a6 07f8 9d82 c7bf
000000a0: e1a4 fce5 4e76 8d3f 130b 9115 98c3 be3f
000000b0: 34c7 8e7c 1d77 bbbf 317d 60c3 0118 bb3f
000000c0: 1001 3e83 c216 61bf c66a 2973 5cfb b33f
000000d0: c653 903e b37d c9bf cb84 76b3 128d b4bf
000000e0: 86b3 d29c f419 263f 6f9e 2a55 0a76 ae3f
000000f0: 8092 f400 432d 413f 1f2a 3f9f 39b2 a03f
00000100: 34a3 71df 2415 85bf e54f bf3a 2241 9cbf
00000110: 1cf6 5254 4ba2 ba3f eaaa 7551 792f 553f
00000120: 8ca3 6560 ff9a 8f3f eaa0 aca9 1bf5 90bf
00000130: a291 e8ec 3ff8 bbbf 20a6 799b f053 93bf
00000140: 3689 3756 c18a c1bf ddc3 2e35 c3a1 a83f
00000150: 21a4 a943 7eb8 94bf 01e4 8800 ac67 ad3f
00000160: 011d 8814 5881 bf3f 645a 3de6 c941 b73f
00000170: 43bd 5923 6fd6 933f d866 cd8c 64dc b23f
00000180: d033 ca18 cadc c4bf 7346 b235 44a8 93bf
00000190: 62c1 1b6f 1d9e 923f 681c bea3 6703 abbf
000001a0: c96f 63a6 e7b8 acbf 87b4 daae f038 b8bf
000001b0: c9d9 d06a 91a3 86bf ceed d229 73e3 9b3f
000001c0: abcc cd27 c7d4 993f 652b e165 2652 9ebf
000001d0: b349 3274 be35 a4bf f2ee 4708 827c 963f
000001e0: 61f6 dca2 a3b9 bdbf 9260 fa16 2f6b a4bf
000001f0: e587 89c2 9f3d 8abf 4f47 c967 49be b9bf
00000200: 5826 6afd 7607 973f d430 bd21 178f 9c3f
00000210: cbdc 532b 6240 bf3f 7729 9161 dd69 c63f
00000220: 4caf d79e 5e90 7d3f 4bc2 185e 0b59 813f
00000230: 1ee2 fb21 ec60 97bf 47bb 936a 9b86 783f
00000240: ebc3 0a58 f12c bd3f aa93 2c35 170b b3bf
00000250: 7efc b8f7 4ab2 9fbf 534e d9c3 7d45 9a3f
00000260: 929b a376 55e6 a43f a1a2 1192 9913 b63f
00000270: 49c6 cf1e c77f af3f 2c5f 37aa ee89 8bbf
00000280: df7b 197d 6779 913f 8fed d9e8 3bfd d03f
00000290: 0bb2 1c8a 0ee2 c1bf a45f a6eb a61e b53f
000002a0: 9cf8 1c64 9c49 a4bf a5e3 5f28 ab7f b5bf
000002b0: fcb5 1b86 42fe 9dbf afd9 3d0e 8cf9 bbbf
000002c0: 3d75 a819 dd0e 98bf 10b8 704e e28a 8cbf
000002d0: 5097 b8be c0d8 903f 5487 b984 4021 783f
000002e0: bcfb 43a6 43c4 9bbf 674d 40c1 b238 a63f
000002f0: 98a1 b385 5aa6 8b3f 9476 bcbd ebd5 ca3f
00000300: b00e 38ca 8746 bc3f 2e0e c58b ac10 92bf
00000310: f975 3068 76c8 be3f e5d4 726e ce17 a8bf
00000320: 3a0e 7c48 aa64 b1bf f0ca 4394 88e2 bebf
00000330: a2ce aebb 3a9b b03f bf1b 3ccd d08e c93f
00000340: 91ae bab1 3616 ae3f ebd7 dc98 c483 90bf
00000350: 455c d79c 9ddd c83f 0385 62f7 1a43 92bf
00000360: b1d2 feac 3b55 c13f e82b baba c12d a9bf
00000370: b169 863a 8ffd 9a3f 0d8e 8145 ce09 c03f
00000380: 7544 3733 e210 5fbf b375 b710 f545 9ebf
00000390: 4955 709f 0f8e 97bf 3195 6176 a321 873f
000003a0: f9f7 5542 dbdd c53f f527 fdb3 7d55 92bf
000003b0: b100 c9b6 1048 aebf 4fb3 0343 4640 a1bf
000003c0: dee5 71e3 114b b3bf b3a0 306d 7cb0 ad3f
000003d0: 2df5 5977 6378 a7bf b285 d106 1a95 b23f
000003e0: 52d4 8694 2221 acbf 31c7 d4fb 700f c33f
000003f0: 6aa4 d75f 346f aa3f 44c8 4112 47d2 b4bf
00000400: fe1e 88d9 2cb3 74bf 8ec8 1333 0491 c23f
00000410: 6d05 4169 4992 79bf 942c b172 73ff bcbf
00000420: 620b 6c33 3438 b23f a5d7 b118 dd14 a23f
00000430: ae0c 2813 8702 b1bf 56e6 b2ca 15cd a53f
00000440: e2e0 c9cc 7225 b13f 1346 1d5a 5000 b9bf
00000450: d7a1 c967 1fd3 c6bf 633f 7547 51a6 bf3f
00000460: 2e14 4e0d 1165 afbf 25e7 5ee1 532b b33f
00000470: 0f3f eee2 c7b1 acbf f238 a0d7 8c1b abbf
00000480: 8ddd 53e0 fb9f be3f 191d 3f8b fa2f 803f
00000490: c3cb e628 a1d0 99bf 274b d92f 0fa5 b3bf
000004a0: 115d 97fc 4882 ba3f 8e1d 2423 a46f 573f
000004b0: 8f16 de51 23a6 b13f 2dce 38d4 82e3 a9bf
000004c0: ce1f d2e7 53f2 b13f 538c 12a1 43a6 a6bf
000004d0: 442e b276 4096 b8bf 9b0c becf a68e bf3f
000004e0: 0c1f 67bb 5f0f b83f dea9 c5b5 e15e ad3f
000004f0: f210 c623 8a02 b63f a99d bea4 fd25 bcbf
00000500: ffbf 2f3a 2911 b33f b1a8 ce92 bc6e aabf
00000510: 2390 244f 534b b73f aa53 c4dd 87aa 81bf
00000520: eee3 fecd 36cf 973f 0ef8 7fff ec3b 71bf
00000530: 56ec f570 b18e bcbf a58d f0ec 6d26 9bbf
00000540: 1672 9f56 93ea a2bf 8163 b618 2db1 7ebf
00000550: 37c6 a79b 8521 b5bf 4d15 d0c4 25a5 be3f
00000560: 09af 3b9c 9cfd ac3f a3e2 8e2e 0e42 a4bf
00000570: 26b2 4d6c ae75 b1bf 843d 5d84 99bd 913f
00000580: 02d3 90e3 d678 c0bf e1e6 12b3 2b1c 9dbf
00000590: 09a6 c21d b8d3 90bf 8abb 633e 07f5 b1bf
000005a0: 9cf3 0e07 3274 993f 0f9d 13a0 6819 9dbf
000005b0: 989f 6fd2 4460 b8bf 14fb a146 bada 993f
000005c0: 858f 745a 4e7d ab3f 331b f76e 3a66 893f
000005d0: 26f8 678c 2714 b7bf dc01 7592 1222 abbf
000005e0: 3126 20b8 bfde b4bf a7be b76d 3181 b43f
000005f0: aa5d 549c b8f0 a73f 06fc f78e 0bbc adbf
00000600: fa96 0c9e 9cbb 703f 9c05 a257 0bb6 a43f
00000610: 35b0 69d6 ad6e b33f 8410 f712 142c b1bf
00000620: f2f4 6e7e 354a b8bf 810d 52c8 f1de 84bf
00000630: a19b 1164 b20c ae3f 2c50 2f9a c484 a7bf
00000640: 57d8 66ac a4de c1bf 9c76 0ba8 2e22 c0bf
00000650: bce8 8cb3 7ae0 79bf 01a0 e69b 3d67 a03f
00000660: 76e2 4670 db53 c23f 86d3 d08d 131b 8d3f
00000670: f7cf c0df 1570 ae3f c4d4 a9e0 fcec 8b3f
00000680: 304d 1e05 ffc5 ab3f 5031 cd71 5e4b a83f
00000690: eeb7 3397 8ecd c1bf 2fea d878 ce67 a13f
000006a0: 11e0 6c62 faa2 713f fc53 c234 14e3 c33f
000006b0: da41 4089 dd83 9b3f a9b6 46dc 918b 8dbf
000006c0: a3b0 e44a ba8e c1bf 99e9 8bc6 8995 b23f
000006d0: a32e 6555 8f7a b53f 8323 3c66 1338 8d3f
000006e0: 0a63 b397 2498 c43f 405b 7cb4 0fa1 bdbf
000006f0: 751b 508f 1047 b2bf 57f0 088d c1d7 a03f
00000700: c929 ecf3 13b1 8e3f fe01 e9cb 54c1 b13f
00000710: 1962 ec39 1e2f 773f 18cf ec3b 5725 613f
00000720: f888 eba9 d49e 733f 9022 9acd e533 983f
00000730: aef0 a2fb 7e85 77bf 208c b340 b30f bfbf
00000740: dfc2 3b28 ba66 ad3f b90f 2a91 4786 b2bf
00000750: dc66 a5bf eb01 883f 96d2 d69e 25a1 adbf
00000760: 9149 479a 60c6 a9bf a37a ecd3 e44d a23f
00000770: 1c42 283e 6dc0 a13f 85ae 5180 0f56 b6bf
00000780: 45b6 7925 cb20 c53f ad4d 2c7f fdc6 bcbf
00000790: c7b2 4fc6 6787 c3bf d50c f763 4901 c0bf
000007a0: b5e6 a02b 3f88 b43f bc76 8a97 6fcd c2bf
000007b0: ecd2 4abe 457c bc3f c826 67b0 5738 8f3f
000007c0: a52b 97fa bcf8 cb3f 1fba e810 d980 acbf
000007d0: 6b8e 42dd 721e b4bf f705 3496 9572 78bf
000007e0: f0cc 1d4b 55e9 af3f 4368 c869 4476 8fbf
000007f0: 43ae 969d 175d c03f 3935 b31b 3f81 bbbf
0.12119879642696516 0.013761391774052492 0.06155416315493181 0.15674933715429754 -0.07762170260817612 0.11003391376970148 -0.11893807177955701 -0.09760269861216328
-0.05401385284841086 -0.17968422277204776 -0.004361963996293617 -0.09383186976165718 0.10668758295478709 0.09803866031518939 0.014555672872159347 0.015144239242564396
0.086983684068911 -0.05542401009640089 -0.03201120874147372 -0.18367361651262207 0.014385811227457914 0.12017202879455295 -0.10728630343399176 0.10583506603187655
-0.002086048038052131 0.07805421649519947 -0.19914856486198412 -0.08027760392589582 0.00016862021440058552 0.059494326492594556 0.0005241944471988252 0.032609749497698674
-0.010294235295263833 -0.02759221538128988 0.10403891380971014 0.001293056940847743 0.015432353143028064 -0.016560013037776246 -0.10925673993967291 -0.018874892701580603
-0.13704697332202337 0.04810915016367521 -0.020235035781670633 0.05743157869842009 0.12306738377820993 0.0908476054295107 0.019372688801408754 0.07367542684132944
-0.16298795900766416 -0.019196573045127296 0.01818128576900458 -0.0527603518849496 -0.05609821230038354 -0.0946188380136893 -0.011054168770084598 0.02723483984730795
0.025225745968282236 -0.029610252350077988 -0.03947253387845553 0.021959335093909745 -0.11611387945318931 -0.03988024859899143 -0.012812851070695028 -0.10055979522556167
0.022489413468554126 0.027889596399561636 0.12207616384317814 0.17510573638930868 0.00721775971531342 0.008470619973281709 -0.022830667089666183 0.00598774632929528
0.1139670219370285 -0.07438797996708382 -0.030953570718562855 0.025655713156380888 0.040819807750998596 0.08623657051215129 0.06152174235456848 -0.013446678704823599
0.017064682970495567 0.2654561780870716 -0.13971120589975813 0.08249896290942488 -0.03962410661778046 -0.08397931800563059 -0.02929023688823483 -0.10927653644271261
-0.02349420041183702 -0.013936775225456471 0.01645184673375094 0.005891086602419399 -0.02711587621979182 0.04340132340453345 0.013500888066531755 0.2096533466764653
0.11045120894419358 -0.017641731291645417 0.1202463154190453 -0.04705662821053539 -0.06794227857249605 -0.12064412708040684 0.06486861307240102 0.19967088719587697
0.0587632266955015 -0.01612765486716931 0.19426317365898363 -0.01783411154668092 0.13541360804597027 -0.049177221340037935 0.026357877680860124 0.12529924768306025
-0.0018961152062398044 -0.029563740868857113 -0.023002857309696343 0.011294629144865983 0.17083302249005763 -0.01790424738945969 -0.05914356452240222 -0.03369350021407646
-0.07536422541479434 0.057987106636859485 -0.04584036666799771 0.0725876108786199 -0.054940300589273364 0.1489087323803289 0.05162967367125122 -0.08133358188368428
-0.005053687280913042 0.14505054944999468 -0.006243025553034226 -0.11327287244891898 0.07117010360165701 0.03531542707871375 -0.06644481866537674 0.04258030032492559
0.06697766780587558 -0.09766103935296426 -0.17831795280223048 0.12363155359821358 -0.061317952036042164 0.07487987758841237 -0.05604385991239102 -0.05294456607963295
0.11962866045711547 0.007904012083499045 -0.025209920998985568 -0.07673735540565173 0.10355049292353537 0.001430425920775 0.06894131420821224 -0.05056389656638447
0.07010387811362692 -0.04423724499908901 -0.096042660692711 0.12327044078669973 0.09398458791030978 0.057364514769534955 0.08597625134831668 -0.10995469352803035
0.07448060675210398 -0.051626103325660984 0.09099312479207859 -0.008626042800225015 0.023251396487214686 -0.004207540296190982 -0.11155232436969817 -0.026513784014367343
-0.036945919345928654 -0.007493187101680899 -0.08254275369815721 0.11970745139122592 0.056622404166629954 -0.03956646269165744 -0.06820192474487694 0.017324827865477413
-0.12868772613150986 -0.028427775196837927 -0.01643264466898667 -0.07014508507903208 0.02485731285172542 -0.028417238970090127 -0.0952189458618008 0.025248442231254734
0.05369038442793709 0.012402016173735575 -0.0901512830532459 -0.05299432790571121 -0.08152387852910505 0.08009632996231152 0.0467584315139747 -0.05807529564116724
0.0040851705423727794 0.0404513878320458 0.07590757832230184 -0.06707883322730096 -0.09488233887437383 -0.010190857816502643 0.05869061919729935 -0.04593481428278809
-0.13960703294805185 -0.12604315953551726 -0.006317595770093994 0.0320376637276354 0.14318411810178916 0.014211800351498171 0.05944889408456782 0.01363561211221976
0.054244965910721255 0.04745001925639036 -0.13908560164367095 0.033995105983610656 0.004305818619108962 0.15536739898803364 0.026870213987480664 -0.014426364455029388
-0.13716820389652637 0.07259427163436384 0.08390136561245724 0.014267112309896529 0.16089303405058103 -0.11573885113135152 -0.07139686106539307 0.03289608809106486
0.014986186868118605 0.06935625055576364 0.0056601696694760445 0.0020930007734935134 0.004790144651197752 0.023635473894076997 -0.005742546107452435 -0.12133331613181086
0.05742437115794074 -0.07236144346285202 0.011722413812708714 -0.05787007869677045 -0.05034162410051402 0.03575053297958177 0.03467122443919754 -0.08725067980565811
0.16506327943663926 -0.11241134981928864 -0.15256974394960407 -0.1250392664061112 0.08020396056317732 -0.14689440631348372 0.11127124687011375 0.01524418360795056
0.2185283874117349 -0.05567053157243528 -0.07858961011748426 -0.00596865112606925 0.062327065867885056 -0.015362295606838333 0.1278409499621934 -0.10744089533109936

bias_0 f8 [256]
00000000: c92a 9324 c9d0 82bf f1eb fe37 0087 81bf
00000010: 0b97 6568 e871 593f 5701 ad10 181e 893f
00000020: d45e 1ff5 7461 71bf e9a0 9874 6ad1 6ebf
00000030: ed3e ed64 c31c 88bf 19e5 d6bd 9d1f 91bf
00000040: 294d a32a 1b91 7e3f 5e5c 7d54 40f7 8dbf
00000050: 4a4f 55ce c37c 67bf bd55 c35a 5955 273f
00000060: 6b9a 07db 12b3 90bf 31f2 80a6 a04b 313f
00000070: 4cd6 525f 66e2 8d3f aabd 4888 5506 7c3f
00000080: 1a92 7b62 4206 8abf b5fa 753d 527d 523f
00000090: fd3a 90f1 3245 8cbf d0df e8c1 02e8 80bf
000000a0: 3521 0aed 0244 73bf 9a99 83ac 631e 30bf
000000b0: 0822 684a a47a 40bf ed89 bd16 322b 73bf
000000c0: d860 5bbe 784b 74bf 9260 7976 9ea9 82bf
000000d0: eb23 5369 22aa 853f 6167 cfbe 9c5d 84bf
000000e0: 3be8 9cec 98cc 813f 2374 2772 ca28 483f
000000f0: 38df 3a53 63ed 833f 9f49 c264 0d7b 893f
00000100: a102 95a9 53d3 6cbf 1f05 49a9 437d 7e3f
00000110: cd28 b11d b7e8 75bf ff68 0b0b 1a67 8bbf
00000120: 0087 39ce 3397 823f 898f 0d8b 80f0 8bbf
00000130: 5b7e 5f0e c3c6 5a3f a369 1445 05a1 85bf
00000140: a292 aae9 82d8 603f 470d 62be a2ac 78bf
00000150: 6159 8a8c 6096 8e3f e9f3 6d8c 1bac 713f
00000160: 33df 0803 2b3d 823f c91a e45d b21d 73bf
00000170: 1131 aab4 fd2d 81bf d9cc 7d59 7027 91bf
00000180: 9c48 1880 fb1c 82bf 4486 eb24 81c3 79bf
00000190: 4abd 901e 5410 81bf b453 2491 c635 51bf
000001a0: 569e fea2 8b9a 85bf c8cc 95d6 f83c 943f
000001b0: 342e bd0d eb75 693f bc04 0c5b 0044 73bf
000001c0: 29c6 1628 a8c4 76bf 24e7 c983 63b9 1c3f
000001d0: fe2f 68e0 3fa7 683f ad0b ebe7 1966 30bf
000001e0: 0ae0 8d74 b3f5 773f ecc4 30f2 c4e8 61bf
000001f0: ac40 9c34 60d4 6fbf bf96 41f8 ef5a 583f
00000200: db41 cec5 0b47 8bbf df0f 8939 481a 673f
00000210: 47d2 f40a a239 883f 5914 5036 e2ab 863f
00000220: 52d4 7dad ae5b 90bf 8cb3 d002 5b21 89bf
00000230: 50ce 6878 334c 85bf 689d 0d3b 4987 8f3f
00000240: 6095 1b71 85e0 75bf 50f5 4333 795b 81bf
00000250: 4f4f ff73 c2f5 7fbf 99fb de85 7e9d 3fbf
00000260: ddea d692 9227 73bf e6ff ebdd de97 963f
00000270: 3f90 3b4a 5ed7 8c3f 3ef4 ac61 9743 543f
00000280: 6d40 0f0f 9c67 8c3f 1baa 5973 e194 97bf
00000290: 8b91 0777 652d 54bf 19fe ce51 2ec9 6fbf
000002a0: febb 8217 5a2e 7a3f 2f27 a37c 74d4 55bf
000002b0: 299f 5d24 b202 70bf e91a cd13 ed1b 7d3f
000002c0: 3b5c 552f 7824 59bf 8287 4f61 8a75 62bf
000002d0: 1c27 13ac 77a3 533f 14d2 39df ad60 a0bf
000002e0: b5ac 897a 5cae 7d3f 1b09 4c9c 64e9 93bf
000002f0: 243f f337 796f 74bf 1deb 9a92 0885 933f
00000300: d480 9fa8 0482 7e3f cf1d f808 fcef 7fbf
00000310: 88d7 0319 d102 3c3f 93c3 9ff7 14db 603f
00000320: d554 bd29 9505 69bf b58b 051a 853a 3cbf
00000330: 0bce e631 c36a 613f a2ec 5640 2f22 86bf
00000340: e029 be86 a14a 69bf 3fcc 9ff1 2c41 5b3f
00000350: d6d0 5137 f2f1 8dbf 104b 47f6 e9a6 83bf
00000360: 912b e9c5 62f6 7c3f fa70 8306 24d0 84bf
00000370: 5c25 ea2d 71be 74bf 62d3 08cd 42e4 78bf
00000380: 1cb6 0cfc 2588 713f d8d8 00cc 6edd 503f
00000390: 5ade 6c9a a82c 693f 9b86 6c02 0089 86bf
000003a0: 482a cd2e 3b25 523f 85c7 2ecc c103 82bf
000003b0: b9d6 ba88 021e 6f3f 6c2e d90a a0f6 79bf
000003c0: 5be0 20ed d31e 663f dbef b350 dcc1 843f
000003d0: 965a 7974 8a61 743f 6b01 cfeb 9c95 54bf
000003e0: 8455 c096 df22 66bf a6cc cd08 36cb 803f
000003f0: fd20 da3d c7c9 8cbf eb77 69de a4b9 6a3f
00000400: 517b 2257 889e 8dbf 99a0 6457 b77e 49bf
00000410: 4835 756d bfd4 823f c4b4 909b 6da1 603f
00000420: c457 e7d8 8bda 603f 4e53 dc4d b958 8d3f
00000430: 4dcc 046e 3d26 60bf 3b38 4370 d415 80bf
00000440: fd06 0321 3fcf 85bf c725 5c16 fed1 773f
00000450: 6164 bb9b f6a9 873f e752 93c0 0132 603f
00000460: 964f 97dd 0b32 7b3f 194f 0242 469a 61bf
00000470: 9ff2 995c 8eb0 593f 0762 9a4c 5501 263f
00000480: acd9 0142 33e9 88bf 69c9 551c cb65 69bf
00000490: 8bba 8601 15e0 7abf cf26 5f5c d417 89bf
000004a0: 49ae 2393 699a 8e3f 2347 fb37 664b 783f
000004b0: fce8 7031 a309 7d3f 25b6 c71a e979 713f
000004c0: 5556 3be1 e0a6 743f a8ee 241f 43a4 923f
000004d0: fd7a 8880 b6e1 66bf 768d 0245 9182 7fbf
000004e0: 5189 f47b c21a 873f b20e 7a5a 0088 92bf
000004f0: 4764 d9cf 176d 82bf f27a 9095 8333 90bf
00000500: 23d6 8417 a144 80bf 35c1 136a 2623 843f
00000510: 59c6 1109 c764 793f 9b9c 36f3 efda 6dbf
00000520: a554 d85f 9a4f 7cbf 6ca2 fe83 c1ad 773f
00000530: 9e27 b74e 22e4 633f 0470 9db1 8b3d 60bf
00000540: 0b3a 4d28 f5cd 42bf 7abe b86e 2f99 853f
00000550: dff2 8776 1956 72bf d225 3437 5c18 4e3f
00000560: 4f24 67aa 2ba6 85bf 60c2 d111 e0d9 503f
00000570: 6847 6823 ee46 81bf d5f0 f0ad 6768 79bf
00000580: 288e a869 1e26 793f e054 494a 6136 61bf
00000590: c0a3 2117 9fb2 703f 683b 68de 004d 60bf
000005a0: df60 2f50 a2d3 81bf 66fd 5d3e 5610 8ebf
000005b0: ecbd 76b8 7778 493f e761 3ee8 e17f 64bf
000005c0: 3951 2c48 ab6e 753f 45f8 87a8 a696 903f
000005d0: 72ef 29d0 0259 7e3f 8fbf d412 4abc 90bf
000005e0: b070 bf10 50c9 833f d609 b5b1 81cd 863f
000005f0: 177d b5e1 1180 7a3f c59d c549 afc6 8a3f
00000600: 4a61 9080 59ac 92bf f25d 19e2 0308 863f
00000610: 1dd2 81f6 58e4 79bf 67a4 f12d f326 84bf
00000620: a3cd 7b80 48b4 30bf f2b1 4c6b 9c72 8bbf
00000630: 0757 4069 83f1 93bf f99a 7c30 81bf 85bf
00000640: 00e0 54f0 6507 7ebf 2ea4 3fbb b41b 86bf
00000650: 8575 44dc be9f 903f 1a89 e55d d454 903f
00000660: e519 5448 d60c 7dbf 185a c94f 4779 83bf
00000670: fae1 17ce b764 94bf 4496 459d 08d1 6abf
00000680: 9f80 d1bd 9380 5a3f 2494 c83a 339a 803f
00000690: 4545 cc6e 4c12 943f d97e 7621 ec0c 79bf
000006a0: a13a 4283 8bb1 7e3f f2bc cd96 58ff 7c3f
000006b0: ca70 f472 944b 7abf a1c0 9996 e6bc 9abf
000006c0: 17cd ae0b 9a3d 63bf 8de4 8e14 3331 6ebf
000006d0: 3734 1270 8f58 78bf c9c1 1257 385c 94bf
000006e0: 8e0e b7d3 8abb 7fbf ed85 6674 92c6 5c3f
000006f0: 38e7 6fdf 3737 81bf 4d31 941a 2a36 65bf
00000700: 2ed6 0a92 817d 73bf 6634 fdb7 c3bf 60bf
00000710: 5990 8002 764b 14bf cec3 150f 6d89 82bf
00000720: 7703 5dd9 2e54 853f e89c 7810 df91 833f
00000730: 73e3 858a 4e95 653f 4bb2 1115 dcaf 60bf
00000740: 2b11 51a3 620c 63bf f317 4ab6 b6a9 57bf
00000750: bc9c 3f77 3291 73bf 92ff 2500 2c48 8fbf
00000760: 66ed aff2 d048 603f 509d 0b10 5c73 8cbf
00000770: cbea a9b9 bb8f 62bf 8116 cbb3 8096 68bf
00000780: 437f dadc 9758 68bf 3dfe a313 4451 91bf
00000790: 3818 88ee 0af5 2e3f a9b6 d73b 6f1f 5d3f
000007a0: 7866 f4ef 7b8d 4cbf dd29 d8a4 780e 853f
000007b0: 47c7 f72c 6741 82bf 2aac e627 7d23 83bf
000007c0: 5a05 bc6b 87c4 54bf 43da a884 7cbc 833f
000007d0: 4f06 03f1 eda6 823f 68df db78 9b33 2cbf
000007e0: c56c 66d8 288b 5b3f 2702 0635 af4d 81bf
000007f0: 967f 2c59 3459 8fbf 8301 a5f5 d3c7 853f
-0.009187289646793844 -0.008558274945121598 0.0015530366523192642 0.012264431008248406 -0.004243332734368461 -0.0037619666297993193 -0.011773611562289921 -0.016722168647651168
0.007462602729180015 -0.014631750658436523 -0.002867109712193204 0.0001780196738595928 -0.01630811178065487 0.00026390716675786784 0.014591979774517892 0.006841978178769118
-0.01270725119634002 0.001128511726932108 -0.01380386161511415 -0.008255025427487711 -0.004703532628475939 -0.0002459519714776093 -0.0005029012871214386 -0.004679866466036559
-0.004954787878624432 -0.009112585058730614 0.010578411902672577 -0.009944176266731554 0.008691019745686748 0.0007372845178071945 0.009730125405766551 0.012441734921854684
-0.003518737223800209 0.0074436800974251585 -0.005348887726606755 -0.013380244695714525 0.009077458125094306 -0.013642315143165511 0.001634302601352908 -0.010561028643270748
0.0020563656701873692 -0.006024013249887722 0.01493525914092392 0.004314525233778157 0.008905731229887337 -0.004666992898143271 -0.008388502193405619 -0.016752009832498558
-0.008844342085499605 -0.006289963216404685 -0.008331925566465021 -0.001050418770835321 -0.010548678313923403 0.01976383981441357 0.0031079855815841165 -0.004703523053423083
-0.005558640348156931 0.00010957403078206953 0.003009438284840015 -0.00025022633046150705 0.005849553105569791 -0.0021861883738202217 -0.0038854483617641513 0.0014865249113652915
-0.013319103216219588 0.002820149482689146 0.011828676184998289 0.01107002952813667 -0.01597474035175523 -0.01227065183965139 -0.0103992482300789 0.015394756426487091
-0.0053410732814190565 -0.008475252987859477 -0.007802733976820366 -0.0004824098485833261 -0.004676411202519684 0.022063715262447568 0.014082657471085834 0.001236818154850341
0.013869494638044178 -0.023028872170849462 -0.0012315264576666398 -0.003880110233211342 0.006391860886806986 -0.0013323915068661032 -0.0039088209794966655 0.00710671051348897
-0.0015345739060046565 -0.0022533133255686075 0.001198641650534466 -0.03198760366368361 0.007246361965921701 -0.0194450111766936 -0.004989121923429516 0.019062169979160538
0.007448213766082474 -0.007797226440295415 0.0004274139873950912 0.0020575913922517646 -0.0030544198361136345 -0.00043073415328914326 0.002126103630155423 -0.010807389403330984
-0.0030873446284591516 0.001663488283608641 -0.014621631921024319 -0.00959570677597335 0.007070909340266677 -0.01016262192609262 -0.0050644322460667544 -0.006077061596944629
0.004280231835577488 0.001029356193624367 0.0030730526954377115 -0.011003494333240929 0.0011075094182212575 -0.008796228450453256 0.0037984895223769047 -0.006338715711148173
0.002700246733208939 0.010135384762627033 0.004975834693672928 -0.0012563736374745181 -0.0027021758051072892 0.008200094360040499 -0.014056736540866139 0.0032623500913322354
-0.014462533148898922 -0.0007780451985910541 0.009194846656692804 0.0020300999426781947 0.002057335986346028 0.014329383553140975 -0.001971359233857528 -0.007854137111646611
-0.010649197764340363 0.005815498856244833 0.011554648044169892 0.0019769701217263627 0.006639524793587889 -0.002148759100302555 0.0015679731608592496 0.0001678864121472808
-0.012163544132118918 -0.003100296688608829 -0.006561357550181622 -0.012252482480011121 0.014942955782735317 0.005931281367979743 0.007089269135628348 0.004266653599626778
0.005041960179104151 0.018204735542197398 -0.0027931751722144447 -0.007692878207453338 0.011281508834660644 -0.018096929094567123 -0.008997140913537772 -0.015821510318455752
-0.007943399934997214 0.009832668411463 0.006199624521387636 -0.0036444365047888067 -0.006911852860430977 0.005780940933541073 0.0024281187122356515 -0.001982472266645276
-0.0005738684709316056 0.010546083990532685 -0.004476642098322186 0.0009184313079526002 -0.010570851457389589 0.0010285080127482513 -0.00843606992296815 -0.006203083989984222
0.00613986854526475 -0.0021011257361275154 0.004076596686084011 -0.001989843079406684 -0.008704441139272876 -0.014679597643179231 0.0007773003171020454 -0.0025023853540455557
0.005232495374702766 0.016199687992404916 0.007409106243922868 -0.0163432668679771 0.009661317359068583 0.011134160266583242 0.006469793176932435 0.01307427352794733
-0.01823558661644257 0.010757475221153865 -0.006321284781837491 -0.009839916076275835 -0.0002548863417210728 -0.013402196907542827 -0.019475987719565626 -0.010619172374914042
-0.007331274221819228 -0.01079503246724486 0.016234380907112395 0.015948599081988403 -0.007092320481439239 -0.009508664247886364 -0.019915458635269424 -0.003273503136528773
0.0016175692355986716 0.00810661337988889 0.019601053488320436 -0.006115839372256204 0.007493538829420971 0.007079454470711998 -0.0064197348395078156 -0.026111224119120483
-0.002348709936507053 -0.003685569540234973 -0.005943832687205711 -0.019883041681795697 -0.007747213643088847 0.0017563276502204864 -0.008406101709613631 -0.002589304193526021
-0.004758363852194898 -0.00204456545171765 -7.741840147496136e-05 -0.009051181815012212 0.010414472587969332 0.009555571260604315 0.0026346715932813957 -0.002036981437916451
-0.0023252417109082177 -0.0014442714974918197 -0.004777142650687679 -0.015274375681428674 0.0019878464713635633 -0.013891906013170058 -0.002265803004147448 -0.0030014528004780887
-0.0029719320362601455 -0.016911567400710082 0.0002361846775473257 0.0017775141017141538 -0.0008713584101400348 0.010281507998134149 -0.008913808879671982 -0.00934503343599687
-0.0012675592869871495 0.009636853025864705 0.009107455175015348 -0.00021516106465191008 0.0016811274414070692 -0.008448952489517115 -0.015306862803811144 0.0106350478496331
