models/demo_model.npz (npz, 587456 bytes, 8 tensors)

weight_0 f8 [20, 256]
000000 0b 85 f6 c6 c9 10 a5 bf fc d4 3d 12 fe ea b9 3f
       -0.04114370874163783 0.10124195046758538
000010 91 ea d8 35 af a2 c4 bf af 0e f0 a9 8a d4 a7 3f
       -0.16121473435653802 0.04654343914446934
000020 22 24 5a 80 0a 49 cf bf 73 7c 28 38 50 c3 cb 3f
       -0.24441653506463107 0.216897990628215
000030 a8 81 2f b8 03 2e b9 bf c1 b4 f9 91 c9 a6 97 bf
       -0.09835837599485464 -0.023097180876381133
000040 46 22 86 3d 33 df db 3f aa 9e 84 35 83 f0 d2 3f
       0.43549805648993745 0.2959297201764267
000050 24 3e e0 3b b0 c0 b3 3f 3b 9e 3c 8e 43 5c d5 bf
       0.07715894185843603 -0.3337563408881327
000060 0c 11 f5 34 69 58 c2 3f 54 54 89 15 7f fe dc 3f
       0.1433230885105633 0.45303322890442144
000070 8a 99 0f ff 8f c9 79 bf 38 87 f7 d7 e3 b3 b0 3f
       -0.006295740590735463 0.06524490378026548
000080 6a 80 39 f4 c2 c2 d6 3f 9b 12 ce 5b 2c 77 c9 3f
       0.3556373009687436 0.1989493797556364
000090 09 2d c5 58 1a 51 b7 bf 92 d6 93 f7 a0 b9 cd bf
       -0.09108128230325375 -0.23222744072670715
0000a0 f6 14 7a 7c 59 fc c8 bf 77 ea bc cb bb b9 a3 3f
       -0.1952010972783353 0.038526409740787075
0000b0 d3 62 00 ad da 42 bd 3f 52 c9 3c 8d e9 ed bd 3f
       0.11430136417073848 0.11691150377445084
0000c0 b4 60 e8 f1 c7 c5 b2 bf a1 06 3c da cd f5 c2 3f
       -0.07333039909315425 0.14812634616833
0000d0 4e 8f 7d ee 11 9f b5 bf bf 25 1f 95 1d ae c5 3f
       -0.08445846626778783 0.16937608510333566
0000e0 2d 39 bd 2d 8d 29 dd 3f e6 7d bc 34 84 af c0 bf
       0.4556611010238097 -0.1303563363553472
0000f0 69 ce 8e 2b c1 49 c9 3f 24 d6 ab 8c 8f b5 b6 bf
       0.19756331087920678 -0.08870789703708987
000100 a0 b0 48 34 76 90 c4 bf 19 ef a7 49 11 5f e1 bf
       -0.16065862229277617 -0.5428549231141658
000110 35 16 59 95 8d 7f c1 3f e5 f7 d1 9c ed e5 ca bf
       0.13670511047728132 -0.21014185101733954
000120 22 52 6d 6d f6 9c e3 bf 90 80 9c d5 6c e7 db bf
       -0.612910474514653 -0.43600006924135304
000130 ec 1e 32 6c 8a c5 d3 bf 94 cf 1d 49 93 5b a1 3f
       -0.30893192831034244 0.03390178935560964
000140 34 57 b6 da 47 8d d0 3f c4 82 53 e9 54 92 d5 bf
       0.25862308844203885 -0.33705637727511495
000150 12 c3 93 1e 00 8a d0 bf c2 8b 7a bf 5a 93 d0 3f
       -0.25842288003973224 0.2589938039693004
000160 02 4b d1 1b 2d ce d2 3f b8 5e 71 94 75 c8 be bf
       0.2938339969306726 -0.12024626611798339
000170 83 11 02 ac 73 e5 cd bf 47 d6 e4 f2 e6 65 ba bf
       -0.23356481455642716 -0.10311740331675266
000180 7a 66 3c 6b 0d 6f d9 bf 70 62 5f 21 a1 af cd bf
       -0.3974031016565288 -0.2319222844078186
000190 04 32 3d 2a c4 ac ad 3f 3c b0 4b 7c 18 09 bd bf
       0.05795872703183494 -0.11342003855287514
0001a0 96 b2 0f 15 57 bb e7 3f 34 de 4b 29 f5 21 b7 bf
       0.7416186725000269 -0.09036190279209039
0001b0 0e f6 14 24 12 ac d7 bf 3f 78 84 cc 90 d2 d4 3f
       -0.36987737201329274 0.32535190555961785
0001c0 6d 6d b3 f8 d3 5d ce bf a6 1b a8 68 1f 0f db 3f
       -0.2372384037360961 0.42279801578882326
0001d0 3f 7a 6c 2e 3d 09 e0 3f 40 dc 17 57 86 f6 b6 3f
       0.5011278063501051 0.08969916940974176
0001e0 d3 3e 90 d7 40 74 e1 bf a1 a0 c3 2c a6 9c b9 bf
       -0.5454410753463556 -0.10004652588725317
0001f0 a1 4b 42 94 23 05 d6 bf 34 23 17 8b f8 a2 cf 3f
       -0.34406365850844095 0.24716097632906442
000200 53 02 d0 e4 b5 a2 c4 3f ae dd 6b ee f0 f8 83 bf
       0.1612155310867985 -0.009752161289255348
000210 f0 66 52 20 a3 72 b6 bf 2a 4c 43 ba b6 0e bf bf
       -0.08768672503574826 -0.12131826445993057
000220 54 1a 5d 6b 15 2c e4 bf 66 e8 85 4d fb 64 d1 3f
       -0.6303813073107656 0.2717884308873465
000230 2c 66 58 a8 c1 8c e3 3f 3d ad 33 57 c5 30 c8 3f
       0.6109321868891064 0.1889883685865729
000240 26 53 40 33 88 02 af 3f b5 43 cd a7 12 f6 9a 3f
       0.06056619287134017 0.02632931851559635
000250 ce ca 8b e7 1b ee e4 bf a7 4d c1 fd 64 b5 b8 3f
       -0.6540660402664231 0.09651786036675124
000260 d1 e1 1c 35 53 11 d1 bf 2e ce d2 6a ae cd e7 bf
       -0.26668243586348434 -0.7438575827022242
000270 9b 24 74 17 9d 1a dc bf 21 8b a4 c0 4b b2 da bf
       -0.4391243676223639 -0.4171323186184726
000280 ac 1f 69 d6 10 08 e2 3f bc 54 42 c7 f2 fe d0 bf
       0.5634845912654689 -0.2655608125581457
000290 f4 a9 45 09 ef 17 ce bf 95 6d 18 b4 d0 34 e9 bf
       -0.23510539963474708 -0.7876971738327706
0002a0 8f 50 3e b1 61 63 ce 3f 6f b7 f9 5d 62 6a e1 3f
       0.23740788607085903 0.5442363582094297
0002b0 51 22 18 8d f0 ef d9 3f 84 c0 f2 2c 1b 09 b3 bf
       0.40526975420701655 -0.07435769889230143
0002c0 c0 23 f8 a5 bc 0a c2 bf b2 cd 8d 74 99 4d d7 bf
       -0.14095266441316134 -0.3641112936231493
0002d0 2a 79 51 16 b0 ec c1 bf 43 59 1f 12 cb 8a d7 bf
       -0.14003563966520832 -0.3678462674119098
0002e0 0a 50 15 cd 60 f2 bd 3f 9e 51 d7 4c 41 e4 c7 3f
       0.11697964674868913 0.18665329219824128
0002f0 45 aa d7 56 04 30 c2 3f c3 d4 ca 8e d0 58 b2 3f
       0.14209036102632147 0.07166770445003849
000300 cd 25 97 24 41 9b bb bf 09 09 19 0e a8 9b d0 3f
       -0.10783774512596907 0.259500516669633
000310 94 09 5b f6 6c be c5 bf 7e 4c 20 ec fe c4 ac 3f
       -0.16987382916529425 0.05619045860671522
000320 71 3f 24 e5 cb ef ad 3f d8 4b d9 03 d9 f3 cc 3f
       0.05847012684000575 0.22619164169245098
000330 db 41 2a 36 3c 06 e0 bf bf 30 d0 ac 3f 28 e0 bf
       -0.5007611329947922 -0.5049131751307171
000340 9d ac ac 2a 50 dd e1 bf 93 15 d6 ef 35 77 d0 bf
       -0.5582657655226232 -0.25727604314337177
000350 43 17 ac 62 e4 d6 c5 3f 48 4f b5 ad 18 ef c2 bf
       0.1706204873846052 -0.14792164308402733
000360 4e 08 99 46 68 23 c1 3f ec 4c 57 ab 63 34 cf 3f
       0.13389304587514278 0.2437862955690443
000370 6f 45 9a ba c5 14 e7 3f 56 2f 51 df 6c 5f b3 bf
       0.7212856907446347 -0.07567482425764402
000380 1c 35 80 b2 ef 26 d1 3f f8 88 81 0b a6 ad b3 bf
       0.26800148421973957 -0.07686841755779372
000390 1c 46 7b 48 6b 02 c6 bf 12 9f 20 48 3c 02 a9 bf
       -0.17194882430207847 -0.048845180325143414
0003a0 b3 68 06 4d be fc ab bf f9 9e 89 8c f7 47 b8 3f
       -0.05466265383002291 0.09484812909215269
0003b0 8d 8e 19 a3 5a 59 9f 3f 65 bb d3 29 c7 34 d3 3f
       0.030614296154807753 0.30009631237674333
0003c0 45 39 17 e2 56 9a ae 3f e0 d0 79 71 f1 a6 be 3f
       0.059771266077961495 0.11973485012441953
0003d0 b2 bb f8 46 8d 48 c8 bf 79 a4 e8 f3 9d 66 d7 3f
       -0.1897141071835598 0.36563824481215296
0003e0 de c0 3f 92 e1 55 e0 3f af 83 6c 7f 0d af da 3f
       0.5104835373331544 0.41693437045801834
0003f0 6e ad 50 76 8c ed d8 3f 77 96 6f 3a 52 ff d8 bf
       0.3894988208218909 -0.39058356958989954
000400 a3 e0 b4 9e ca f6 b5 bf e2 76 37 7b bb 00 e4 bf
       -0.08579698919936844 -0.6250893980574939
000410 d0 c6 33 5f 9e 79 ce bf bf b9 b7 4e d1 d7 d0 bf
       -0.23808650635287743 -0.2631724613883328
000420 5f aa e7 63 8b c3 95 3f 1b cf 1f 2d bf ca e1 bf
       0.02125375554343589 -0.5559993630726895
000430 05 e3 b3 31 53 8b cb 3f d8 57 e7 d0 ee 0b c3 3f
       0.21518936087502297 0.14880166244864657
000440 84 2d e1 a0 df 31 d3 3f ae 56 e5 57 86 f4 d8 3f
       0.29991903983019363 0.38992460807399254
000450 dd 2c 43 7a 88 de c1 3f dc c2 96 dc 63 fd db bf
       0.13960367173999702 -0.4373407034100134
000460 f0 6e 62 eb 25 df c7 bf 12 01 b7 be b9 c1 da 3f
       -0.18649744027504012 0.4180740702104383
000470 23 ab b5 7c d9 b9 c7 bf cb 4c 6d 80 5c 66 c9 bf
       -0.18535917844141023 -0.19843632002684894
000480 04 cf ed 27 12 be bc 3f 56 d2 9b 11 4e 41 ae 3f
       0.11227525210216177 0.05909198727559743
000490 42 ff e3 f9 f4 d4 e1 3f 00 81 3f d6 2a 6b d3 bf
       0.557245719974141 -0.3034159748331291
0004a0 62 3e 8c 00 ce 3f c5 3f fc 9f 9e 0d 26 4b db 3f
       0.16600966479062423 0.4264617093090235
0004b0 92 5c 54 a5 05 6c b9 3f 79 9b 38 e1 53 ff e1 3f
       0.09930453573575651 0.5624179266786619
0004c0 85 48 2f 67 50 01 da bf 1c 15 23 7e 65 32 e0 3f
       -0.4063302047408189 0.5061519111265258
0004d0 9b 84 a6 87 db 87 df bf 85 ab 9f bd 85 04 d7 bf
       -0.49266708609690973 -0.3596510268968632
0004e0 b1 e8 27 5e e8 43 c4 3f 63 be 36 89 ca 23 c5 3f
       0.15832237813430575 0.16515475940603883
0004f0 44 4e 86 01 55 8a d2 bf b4 b2 03 79 6e eb b7 3f
       -0.2896931185616476 0.09343615011648404
000500 b5 d9 46 61 a3 1f d8 bf bc fa 0c 56 7b 88 d6 3f
       -0.3769310426681856 0.3520801868761898
000510 0f 5c 35 6c 3b 30 b3 3f 7e 6e 5e 65 5e 28 d4 bf
       0.07495471374328154 -0.3149639120035558
000520 6c 2b da 0d 0b c1 b3 3f 86 53 e1 01 01 3f d2 3f
       0.07716435516537751 0.28509545501338385
000530 36 9c d4 6d 8b 54 d7 3f 2f 08 61 99 59 5a bd 3f
       0.36453519559512715 0.11465988154034855
000540 8b 2f ac 0f 24 fe db bf a6 a0 ae 60 15 b6 d2 3f
       -0.43738652735259426 0.29236349526991956
000550 23 58 ff 82 89 77 dd bf 70 32 e9 83 92 4b c2 3f
       -0.4604209689399587 0.14293128434146096
000560 a7 15 ba 75 a2 87 ae 3f eb 24 46 0f 97 ba d4 bf
       0.05962855994315968 -0.3238885544929661
000570 4c 98 94 47 f5 0c ce bf 76 5c 60 4f b1 1b d5 bf
       -0.2347704505456839 -0.3298152232322943
000580 5d f3 b2 40 eb 8c a4 3f ee db 97 42 6e ab c1 bf
       0.040137626312094034 -0.13804414989110064
000590 7f e8 ca d8 5d 1f d6 3f 0c 30 47 c0 e8 1d e6 bf
       0.34566446467545825 -0.6911510234290303
0005a0 57 3e a0 50 15 2e c0 3f 59 ac ba f7 7e 02 d8 bf
       0.1264063495332148 -0.375152341769256
0005b0 0f 29 a1 c5 ae 61 d6 bf d8 23 7d 0e cf c3 d6 bf
       -0.34971207904585894 -0.3557012216083968
0005c0 21 13 46 3b d6 37 b4 bf 81 9e 4b aa f3 3e cb 3f
       -0.07897700259316 0.21285863700108013
0005d0 aa bd 33 6e cd 9f b3 bf f4 21 da 6d fa 8c d7 bf
       -0.07665714207154531 -0.3679796288274979
0005e0 a0 7e 2d e3 e0 1f 96 bf 76 ea a6 25 36 76 d0 bf
       -0.021605981698825105 -0.2572150581069431
0005f0 e8 f3 4f f6 b3 7c dd bf c0 d1 28 e2 de 15 c5 3f
       -0.460736265696879 0.16472993891660614
000600 e2 72 0c 9d e8 03 de bf 25 47 79 42 d0 7c c3 3f
       -0.4689885648420341 0.15224650617397475
000610 9d 96 90 93 ff 2e 75 bf bd 25 da 92 fe ea a2 3f
       -0.005171774239931229 0.03694911520603792
000620 a1 32 78 54 85 77 e0 bf 62 a1 82 db 4f 67 c9 3f
       -0.5145899438662874 0.19846533029818675
000630 d4 d5 f7 e7 98 3a c8 3f 2f 0c 86 90 7c 5a e6 bf
       0.1892882473618288 -0.6985457251288433
000640 25 3d 6e 67 d0 bf e1 bf 68 e9 dd d7 a5 42 d0 bf
       -0.5546648044709498 -0.2540678604197155
000650 92 80 68 e7 09 f0 9a 3f fd b9 8c 01 41 17 ab 3f
       0.02630629992393147 0.05291178840558428
000660 9e 3e da 9d ad 2c c6 3f b0 91 1d 4a 2c 14 e2 bf
       0.173238470150399 -0.5649625251358454
000670 a6 31 dc 36 76 73 d6 bf 93 a0 b1 5a 93 58 c2 3f
       -0.3507972274535639 0.1433281128731819
000680 fe 9e 18 78 13 87 c3 3f 92 85 85 bb 3c 0c c0 3f
       0.1525596939475164 0.12537345081640844
000690 1f 7c 0e 09 e8 be c0 bf 30 cd f4 7c 9a 4e c3 3f
       -0.13082600061622515 0.1508362875116318
0006a0 4a 7a 8c ae 10 b8 b8 3f 73 5a 83 9e a5 ff e2 3f
       0.09655861150211212 0.5937069030722583
0006b0 bc d6 0b 16 e6 78 cc 3f 4d 4c 4a a5 3d bd c4 3f
       0.22243953777767966 0.16202517100154737
0006c0 26 9a a2 b8 ee 3a c4 bf 04 30 d4 2e 56 70 d1 3f
       -0.15804847731961152 0.272481485110575
0006d0 e3 34 79 34 ce c9 bc bf 75 0b 45 71 1c f8 d0 bf
       -0.11245430737581645 -0.2651434999608491
0006e0 a8 58 2e 81 23 84 c4 bf bc 7d d3 ed f1 3c c1 3f
       -0.1602825527922438 0.134672394872707
0006f0 a8 a1 58 d3 56 59 b1 bf 61 b5 67 74 6e a3 a3 3f
       -0.06776945743388885 0.0383562581153949
000700 32 99 92 64 99 14 e5 3f 27 ed 49 4d 8f 16 9c 3f
       0.6587645496663639 0.027429808704693272
000710 50 d0 78 47 49 00 65 3f 7e 0b f8 05 33 50 9e 3f
       0.002563613055622617 0.02960281108790807
000720 09 55 a0 8e 95 76 ca bf d6 ed d3 06 4c 76 a3 bf
       -0.20674390281843838 -0.03801190932605507
000730 60 ae 29 76 61 78 e2 3f b3 05 2e 18 2d 21 e1 3f
       0.5771949107997436 0.5352998230229588
000740 f2 52 90 ee 14 87 b7 3f e8 0b 01 37 ec b5 bd bf
       0.09190493416128812 -0.11605717032311669
000750 09 32 8e aa 14 af d7 bf 41 3b 80 bc 8a b8 cc bf
       -0.37006107955747375 -0.2243817730345317
000760 af 5d 23 b1 a2 1e bc 3f cb 18 8b 94 ee 70 c7 3f
       0.10984246086751769 0.1831339097317993
000770 52 96 de b0 98 79 e2 bf 06 44 4d 98 d9 75 d6 3f
       -0.5773433165056281 0.3509429919550374
000780 fc 7b 59 3c ef 3b b5 bf fd a6 46 21 33 1c e0 bf
       -0.08294577811601295 -0.5034423494264214
000790 06 28 3f 16 a7 1e d9 bf 2e 6d ba f4 0d 29 c6 bf
       -0.39249589130906803 -0.17312788438435106
0007a0 64 44 74 cc 4d f2 cb bf 6d 3a fd b1 0a 46 b3 3f
       -0.21833202822793674 0.07528750272215641
0007b0 fd 60 ff c1 5c 7a ba 3f 54 ef 53 ac b5 3e c3 3f
       0.10342960106152428 0.15035124697157676
0007c0 cb 6f 84 45 70 56 e2 bf af 53 99 da 19 92 d7 3f
       -0.5730515821228378 0.3682922968630988
0007d0 c9 ab b4 28 51 2d be 3f e0 fd 18 f0 c5 ff dc 3f
       0.1178789829615844 0.4531111569121702
0007e0 b6 be 6c 27 fa c3 90 bf b3 72 7b b4 b7 c9 b8 3f
       -0.016372593551919855 0.0968279662733476
0007f0 2e ab 35 c3 54 0c cf 3f f7 15 51 50 19 38 df 3f
       0.24256381541939603 0.48779900401527193

weight_1 f8 [256, 256]
000000 28 85 be 07 0f ec be 3f 31 ad 40 8b 60 95 9c 3f
       0.1207894700915132 0.02791357850962334
000010 1a 53 2b 53 ac 56 ad 3f c4 0a 14 f5 b4 23 a9 bf
       0.05730188861131165 -0.04910054675749145
000020 7b 7b d0 c1 a9 c5 b9 3f ef a7 4a c8 78 cf 94 3f
       0.10067234975620735 0.020322692131834626
000030 02 d2 2a d5 be 9d b1 3f dc 9a 1a 60 33 25 cc 3f
       0.0688132543971918 0.21988527481626974
000040 5c 88 85 ad 57 d8 93 bf c3 26 e4 8b 20 af 86 3f
       -0.019379968610686013 0.011076216000691535
000050 b8 b4 63 b0 82 1e bc 3f 2c d0 50 f2 f2 19 ad 3f
       0.1098405533445711 0.05683860023455653
000060 86 a1 16 8c e7 79 71 bf d3 03 5f 7c a9 86 91 bf
       -0.0042666477978986535 -0.01711525746918936
000070 31 4f c2 96 34 9f ab bf 9f f0 ed e3 49 94 b6 bf
       -0.05394901600189284 -0.08820020498927982
000080 a3 9e 47 15 25 3c 8c 3f 5c 8f d0 58 02 1d bc 3f
       0.01378659220877349 0.1098176447708829
000090 f3 3a 56 70 5c 21 b4 3f 17 8f 88 3e 2d 9e b7 bf
       0.0786340498218399 -0.09225733544058944
0000a0 06 76 41 5b c8 13 c2 bf f9 10 da 97 e8 69 b2 bf
       -0.14122871833653522 -0.07192853648490773
0000b0 2e 56 c0 16 d6 85 c6 bf a0 71 28 6f 30 ed a4 bf
       -0.1759593592729955 -0.040872109955873315
0000c0 d8 a3 4e f9 bd f6 a6 3f 52 44 db d3 49 cd b7 bf
       0.04485124271679525 -0.09297620222356898
0000d0 b5 08 3f fa fa b9 92 bf 5e 5a ba d8 df 84 88 bf
       -0.01828758385068659 -0.011972187806617626
0000e0 27 15 6f d7 3f ce c4 bf 0e f1 89 2e 05 5e a8 bf
       -0.1625442315982266 -0.04759231751538283
0000f0 fe d8 e0 b4 a1 2f bb 3f 99 b8 14 f4 40 0b 95 bf
       0.10619555154775992 -0.020550742051618973
000100 10 b2 98 c9 83 5d ac bf 5a d8 b4 f2 dd 73 b7 3f
       -0.055400961264556625 0.09161173987817631
000110 3d 9d cb 69 5d 19 c0 3f de e1 b4 85 9d 2d a4 3f
       0.12577407518186048 0.039410517284014665
000120 6c a2 81 1f d0 ac b9 3f 93 0f dc ba 9c 28 9b 3f
       0.10029316682051509 0.02652211084843221
000130 a8 7d 07 bd f9 7f b0 3f 89 c8 dd 3f ba 9e 9c bf
       0.0644527517792911 -0.027949247501461136
000140 bf 56 78 7e 21 1c b6 bf 34 66 fe ab 52 d4 a3 3f
       -0.08636674249313624 0.0387292704537682
000150 a3 9e 33 8b 84 0c b2 3f 9e 1c 44 dd 32 77 b2 3f
       0.07050350569226764 0.07213132764819583
000160 03 f8 28 24 bb e8 b1 3f 81 1d 72 60 ff fd a1 3f
       0.06995744355023707 0.035140972636379615
000170 f6 50 a8 b4 1f f8 bd bf 65 86 b3 e1 87 03 ba 3f
       -0.11706731949408664 0.10161637554440402
000180 df 7d 5a 90 c5 32 d4 3f 0b ef c2 c7 db 54 c5 3f
       0.3155988607122406 0.16665217641809024
000190 06 a7 1e e7 38 6b 9a bf 2d 3e dc 5f 91 40 99 bf
       -0.02579964552538796 -0.024660369373178326
0001a0 1f 79 70 99 a2 d7 a1 3f 8f 23 1f 3d 84 ef 7a 3f
       0.034848290663136654 0.006576077039377361
0001b0 0e ff ad 84 5c e6 a8 3f 53 c7 34 05 65 f0 b1 bf
       0.04863251800179401 -0.0700743806562774
0001c0 c5 ab 0f fa 7a 24 c0 3f 7d ae 6e 9c d8 f0 bf 3f
       0.12611329278965236 0.12476877040051622
0001d0 5c cb 8d 09 97 51 b2 3f 0d f5 d3 f1 ce f4 95 bf
       0.07155746443986061 -0.021441682348258207
0001e0 cd 95 2e 5b ca 58 9b bf 6b 7b eb 05 23 5a c0 3f
       -0.02670589620142554 0.12775075711303016
0001f0 31 ea b9 23 dc 12 89 bf fb 63 a0 36 5d 24 b7 3f
       -0.012243003692892081 0.09039862235694322
000200 e3 30 aa a5 a2 a1 81 bf 5c e3 f9 15 e1 fd a0 3f
       -0.008609076195420012 0.0331869448973012
000210 fd 8b 04 50 a7 da b2 bf c4 6a 76 a2 b7 9d 81 bf
       -0.0736488886218893 -0.008601603169883794
000220 1d a2 9d ef 6c f6 96 bf 0a 7e 5a 60 06 64 b4 bf
       -0.022424413800225296 -0.07965125896816275
000230 1c 10 a1 e6 e5 f3 b1 bf 5b 40 f7 e9 8d c1 b8 3f
       -0.07012783890337498 0.09670340501838963
000240 b1 08 3c 33 fb 93 d1 bf 82 69 ae 40 c1 ff 78 bf
       -0.27465705874795804 -0.006103281872947954
000250 d2 f6 33 f2 ac d0 be bf b1 37 0b 59 15 06 be 3f
       -0.12037163651617824 0.11728032516404487
000260 da 09 c6 9e 14 a4 ba bf 23 ab 2f 18 31 86 a3 3f
       -0.10406617046650216 0.038133176996629346
000270 8a 16 32 e8 1d 78 98 3f f2 49 87 f9 f7 8c 9b bf
       0.023895709321115656 -0.02690494022847107
000280 9a dc 4d fb d5 de ab bf 86 d1 e5 10 80 67 c2 3f
       -0.05443447773625927 0.14378357720455542
000290 36 1a fb 31 ab 7c a0 3f 62 8d 68 ab 02 8c 8d 3f
       0.03220114693754221 0.01442720494839617
0002a0 bf df 2c b4 24 84 8e 3f 19 0d 5a 1e 10 0d bc 3f
       0.014900480984223806 0.10957432499894927
0002b0 51 b5 5b 46 42 25 b2 bf 01 55 0e 05 97 63 b7 bf
       -0.07088102548342091 -0.09136337159573672
0002c0 89 ac 7b fd 6d 21 97 bf 7c af 2b 7b 03 c8 a9 3f
       -0.02258846149099417 0.05035410765216761
0002d0 98 45 1a 71 ea 14 90 3f 4a 04 b6 5e 37 9c c4 3f
       0.01570478740047107 0.16101734280167285
0002e0 61 48 c4 3d 5a c6 be 3f f8 f8 93 d2 cb a4 a0 3f
       0.12021411903359215 0.032507295089077404
0002f0 fe 84 52 b2 d0 49 b9 3f 92 33 85 48 43 30 a1 3f
       0.0987825808865814 0.03357134113557615
000300 bb 20 bc a5 e1 37 a3 bf 58 a0 d1 97 65 9a be 3f
       -0.037535716515834726 0.11954340893282855
000310 2e 64 78 15 c3 91 c2 bf da de 41 2c a0 90 95 3f
       -0.14507330463746498 0.021059515668155317
000320 d5 69 73 f3 1d 95 bd 3f cc 6b cc a7 75 33 a1 bf
       0.11555659478782528 -0.0335957305271318
000330 1c 67 2b cc db 44 a5 bf 79 d6 2c f4 4e 16 c2 3f
       -0.04154097430519085 0.14130579874624852
000340 27 19 2a 9a bf a4 c2 bf a7 04 0b 01 df d3 c1 bf
       -0.14565272357521872 -0.13927829314164805
000350 72 a9 de fb 66 91 bd bf 24 a9 72 b9 3e 50 98 3f
       -0.11549991273083096 0.023743610447732114
000360 fd 35 33 ad 5b fe b7 3f 1f a1 1c 9c d3 aa b0 bf
       0.09372494677082695 -0.06510660706829129
000370 44 f8 2e 4c 36 a4 c0 bf c1 11 44 8a bd e8 93 bf
       -0.13001135558983112 -0.019442521633225022
000380 fc 0c e5 01 79 fe bf bf ba 2d 3c 8c 02 91 bc 3f
       -0.12497669502504388 0.1115876762743743
000390 05 11 35 cf 9b 1e c4 3f 59 da 48 ab 73 a8 ae bf
       0.1571841012720442 -0.05987893548847429
0003a0 b7 10 1c cc 16 28 b8 bf 76 97 c2 3a 26 76 c6 3f
       -0.0943617103876616 0.17548063153406773
0003b0 43 ca 0d 26 2f dc b9 bf 3e 9d dd f3 05 36 56 bf
       -0.10101599387216091 -0.0013556535845625352
0003c0 15 f7 1c 5f 2e c7 c5 bf d5 c4 c7 6d f5 00 bb bf
       -0.17014102596470396 -0.10548337869819886
0003d0 f8 45 78 25 98 fd 95 3f 7e 69 e7 df 74 97 a0 bf
       0.02147519806573503 -0.03240552170946652
0003e0 7b 80 d4 aa cf 52 8b bf 2d 7d 70 a7 9f 8a b6 3f
       -0.013341543579884032 0.0880527290141699
0003f0 73 19 37 d1 cb 48 a2 3f 64 1b b6 09 fd 8a a9 bf
       0.035711640633553275 -0.04988852256342716
000400 3d ef 21 f5 ac c7 89 bf dd 01 ab 2a 28 c8 a0 3f
       -0.012587882262088729 0.03277707596635413
000410 fa 7d 80 3a 6e 23 7f bf b6 4f 19 f9 0e 0b 86 3f
       -0.007602148609322063 0.010763279892820648
000420 dc 66 ac a9 9b 64 be 3f 96 62 33 55 58 62 b1 3f
       0.11872265713136748 0.06790687637420442
000430 a4 9c 81 1a ea 3e c8 bf 97 2f 3c 32 da 13 a8 3f
       -0.18941999716046098 0.047026461250509737
000440 6d 50 81 1c c2 c3 c7 3f f3 5e ee 5e 40 a7 95 bf
       0.185661567610285 -0.021145826143395174
000450 c7 b9 3c 71 1d 66 84 3f c6 c1 09 0f 9f 9e c9 bf
       0.00996039392302074 -0.20015323862345563
000460 50 1f da 21 41 c5 c0 3f e6 84 af 73 d2 42 a2 bf
       0.13101972725803046 -0.03566606199434279
000470 b6 66 2f 7c 81 48 b2 bf 99 74 7a 83 d5 87 b7 bf
       -0.07141885072578699 -0.09191641292496157
000480 c6 a5 53 51 18 ff ba 3f 2e 06 fe 68 6e 86 7a 3f
       0.10545494065777125 0.006475859918170053
000490 b0 9c 95 dc 8f a1 b5 bf ad be 67 83 05 62 a5 3f
       -0.08449648986207836 0.04176346997325928
0004a0 69 b6 48 80 c4 3a 6a bf 8e 77 41 a4 81 f0 ba 3f
       -0.00320185069201422 0.10523233661794348
0004b0 b5 f6 6d 10 de b9 a8 3f 91 e9 55 1b 3f 84 97 bf
       0.04829305601650217 -0.022965417903358768
0004c0 fd 00 c4 ef 80 20 ac bf c5 a4 00 cf 68 06 8f 3f
       -0.05493548323465978 0.015148943726745032
0004d0 57 78 6b 9f 1c cd b0 bf 32 93 61 20 dd 58 c5 bf
       -0.06562975780568202 -0.16677440720663977
0004e0 3d 82 c6 4b 8c e8 ac 3f 69 65 77 7e 48 20 9e 3f
       0.05646170067780474 0.02942002555741877
0004f0 d6 19 ea de 92 38 ba bf 4a c9 f3 f7 ee da 8a bf
       -0.10242574636695365 -0.013112894956496608
000500 31 44 e7 84 0b fe 93 bf f2 5a 51 a7 0d 14 96 3f
       -0.019523792254237008 0.021560872399585436
000510 a7 72 f9 f7 84 db bf bf 47 fd 7b e6 8c 47 ba 3f
       -0.12444335035383834 0.10265427233752177
000520 14 79 54 e0 63 36 6e 3f 5d 52 b9 94 1c 4d c1 bf
       0.003688044615628114 -0.1351657606307012
000530 dc 69 46 24 9c ec 5e bf 67 80 ae 83 c0 91 ac bf
       -0.001887466890457482 -0.055799499582690974
000540 b4 5f 2d a6 0d 5f a5 3f fe 63 8a 2d d9 89 84 3f
       0.04174082425623685 0.010028549864090405
000550 20 19 71 b7 fe c1 b9 3f f6 39 2b 96 b9 4e a4 3f
       0.1006163785797054 0.03966312368503459
000560 c1 9f cb d3 08 00 a4 3f e3 d9 c3 47 6e 45 b0 bf
       0.0390627630748095 -0.06355942966533905
000570 d2 45 d9 15 6e b4 bb bf 4f 5d fb 04 48 1e b6 3f
       -0.10822189362922721 0.08639955636623607
000580 2d 03 dd c1 3e df c9 bf 68 8c c1 25 5a ec b3 3f
       -0.20212540117247482 0.0778251974275449
000590 e5 6b 18 d1 ae 9b a5 3f f3 51 7f c9 f3 6e 41 bf
       0.042203391098347066 -0.0005320253721899357
0005a0 46 bc 18 9b 9e 96 c2 3f 71 4f ee 29 0a 72 b0 3f
       0.14522154400899207 0.06424010776237112
0005b0 29 d0 5e b4 2d 17 c0 3f dc 74 de 54 a2 0c c6 bf
       0.12570735270640057 -0.17226056236260134
0005c0 9c ea c9 b2 b3 ff b7 3f cf 04 31 68 67 42 5f bf
       0.0937454520698488 -0.0019079217752422833
0005d0 75 b4 6e 91 f6 b9 a8 bf 21 15 53 64 17 53 b5 bf
       -0.04829378629015305 -0.08329912375764482
0005e0 87 5d 54 96 9a 59 54 3f 51 4d c0 83 fb b6 9a bf
       0.0012420663491122545 -0.026088647762731402
0005f0 aa a5 1a 21 3f f8 b0 3f d3 73 36 a9 63 6d bd bf
       0.06628794248776751 -0.11495039826554825
000600 73 bd 97 c3 62 94 9a bf 1b 9d 2e ef c6 28 aa bf
       -0.025956671894105065 -0.051092354485542134
000610 08 78 df 44 28 6c a5 bf b9 3c 4b a0 94 3f 9a bf
       -0.04184079972013427 -0.02563316562992377
000620 35 cc e4 a5 75 d5 c1 bf dc 7f f7 04 93 76 bf 3f
       -0.1393267688777954 0.122903050148579
000630 6e 9b ab db 86 f6 92 3f 3e 2a 38 d2 12 63 a0 bf
       0.018518550069440413 -0.0320058709731552
000640 d1 c7 ce 41 ee f3 c2 bf 40 f0 71 77 d6 0a c3 bf
       -0.14806917393940336 -0.14876824219015994
000650 d0 dd e8 84 70 7b b5 bf 95 ca cb 2e a0 3e b1 3f
       -0.08391478772033811 0.06736184256059581
000660 88 83 e6 5a b7 3c aa bf 25 ad 9b ed 96 6e bd 3f
       -0.05124447807907645 0.11496871281604067
000670 d6 ba 92 99 dc e8 7f 3f 1f e9 f9 75 76 f5 99 bf
       0.007790433615055567 -0.025350428534218424
000680 c7 a5 74 f0 84 3e 9f bf 0e b6 c1 5d f3 65 c2 3f
       -0.030511929680107543 0.1437362869068441
000690 c6 1a 05 d1 ca 34 cb 3f f5 26 3f 35 73 84 ba 3f
       0.2125485916714835 0.10358352708785985
0006a0 34 1b d1 5e 3d 78 96 3f a0 59 ee 32 4c 32 7c 3f
       0.02194305316177321 0.0068839050790273915
0006b0 36 3c f5 e8 57 69 bc bf 10 0c 17 d3 a2 bb a5 bf
       -0.1109824126954074 -0.04244717432768408
0006c0 4b cf ab 14 eb 70 ba bf 29 33 98 3f d0 05 ae 3f
       -0.10328549627939514 0.05863810325909064
0006d0 da cc 1c f5 a7 d6 bd 3f 27 b4 b5 d7 37 ca a8 3f
       0.11655664190475382 0.0484178019349673
0006e0 22 c0 83 47 ac 6f 9b 3f c1 7f b3 02 e5 8c b3 3f
       0.02679318605891024 0.07636863056131828
0006f0 85 a2 27 4c 53 cb b6 bf 7e bf 06 32 49 ca aa 3f
       -0.08903999909638045 0.052324569088681536
000700 a0 67 76 88 b4 71 ab 3f 27 5e 4c 8d e7 6b ae 3f
       0.053601876886389066 0.05941699600060373
000710 b9 6f f8 05 19 12 83 3f 74 85 5d 2d 62 5e b0 3f
       0.009311862463668651 0.06394017798949908
000720 cc 4e 90 15 df 37 c9 bf ed b0 ea a4 e6 1a bc bf
       -0.19701756050982622 -0.10978547598159923
000730 86 05 3f bd fd 4d b4 bf 12 f7 06 f4 47 27 bb 3f
       -0.07931505079525011 0.10606813152022834
000740 ea b3 02 3f b4 60 99 bf 76 77 dd a7 32 aa ad bf
       -0.024782959314212073 -0.057939131728502
000750 3a 37 e8 3a 6d f4 81 3f 3e 25 b8 2a f2 20 cd bf
       0.008766988144113353 -0.22756793104080403
000760 ca 94 f7 cf 37 48 5e bf 9a 19 64 99 06 d9 a0 3f
       -0.00184827280451687 0.03290577528428003
000770 00 9d 9e c0 6b 2c 99 3f 16 e5 bb 8b 02 d1 cc 3f
       0.024583514815870622 0.2251284773154018
000780 42 37 a0 d1 2f 4b b3 bf 91 e7 c9 42 59 0f b1 bf
       -0.07536600940531193 -0.06664045219977612
000790 ba 19 f5 43 b4 8f 55 3f be ef 37 c0 86 59 95 bf
       0.0013160000233526218 -0.020849328500829982
0007a0 7e c9 84 c8 b5 9a bb 3f 84 9a f7 19 80 00 bf 3f
       0.10782943864322722 0.12110138544049148
0007b0 17 61 c1 38 6b 0e b3 bf ba 8e 1e 87 49 35 be bf
       -0.07443876395825942 -0.1180005984193099
0007c0 7d dd ed 69 6b 47 c4 3f 62 b8 fb 18 2b 80 bc 3f
       0.15842955276796636 0.11133069381659902
0007d0 43 d9 2d 6c f4 b1 b5 3f 5d 22 80 a8 84 fd bd bf
       0.08474662438479634 -0.11714963067800839
0007e0 cd 7d 85 65 15 6c b6 bf 97 c3 1d b3 7c 9a ba bf
       -0.08758672455359502 -0.10391978619533258
0007f0 21 26 43 3a ba d9 93 3f b9 a2 dc af 21 a9 b6 3f
       0.019385251813934915 0.08851824325086967

weight_2 f8 [256, 7]
000000 01 e8 40 ea 8c 83 90 3f c5 83 9b c5 fb ec a7 bf
       0.016126825139714644 -0.04672991549683262
000010 57 72 05 b1 98 7c a4 bf 96 2e ae 86 44 12 a2 bf
       -0.04001309548286674 -0.03529562133834678
000020 c0 4b b9 71 a2 c9 b5 3f 18 c1 b0 a1 8b be 9d 3f
       0.08510794903240448 0.02904718565349737
000030 ef 4e 02 5e de 05 93 bf 08 cd 97 ff 02 62 82 bf
       -0.01857707451615814 -0.00897600500591135
000040 89 51 e1 8d a4 b1 cc 3f da aa bc 83 4a 36 c9 3f
       0.2241712277197048 0.19696933205098938
000050 a9 18 13 13 5b 80 81 3f 28 c3 a8 fd 75 35 a7 3f
       0.0085456004329781 0.045329749311696255
000060 30 92 03 06 05 59 bb bf 28 9e d1 58 e5 27 ba bf
       -0.10682708165001809 -0.10217126291683398
000070 2d 27 00 ab 34 55 a4 bf b5 4c 11 3c 79 89 bd 3f
       -0.03971256816301003 0.11537893024915287
000080 01 2a 2f 97 b7 76 c3 3f 97 12 46 98 ee cd b1 3f
       0.15206045991938313 0.06954852311725755
000090 37 25 8e 6e ec 7c c2 bf 3e 1b bb 8f d2 97 b7 3f
       -0.1444373645611365 0.09216037758879467
0000a0 fb 75 88 45 53 21 68 bf 1f f0 56 fd 26 62 d1 3f
       -0.0029455782316876156 0.27161574115939574
0000b0 71 ea 2e 3f c0 86 b5 bf fe ed 94 00 2a 8d a3 bf
       -0.08408738653717208 -0.0381863713941719
0000c0 c8 ab 5b f3 74 b9 aa 3f 0c 40 af 54 52 d4 aa bf
       0.05219617338828858 -0.05240113528964238
0000d0 8d fc f5 ab bf ce a4 bf f7 07 1e fc a6 24 b5 3f
       -0.040639867535895303 0.08259051947791805
0000e0 40 bf 10 88 1c 81 ba 3f df 3c 47 51 ce b1 b9 3f
       0.10353258439931512 0.10036935314495875
0000f0 0c ee 50 74 ad db bc bf 90 b7 3d e7 42 d8 b0 3f
       -0.1127270134901936 0.06579988618406518
000100 62 5b 81 7d 99 b6 bc 3f 10 3e f1 a0 d8 50 c0 bf
       0.11216124834150556 -0.12746723040116636
000110 83 28 77 24 e6 1f b1 bf d7 39 09 b8 6e c6 af bf
       -0.06689299001951281 -0.06206079479726483
000120 ec d1 24 d9 43 44 b5 bf f1 53 ad bb 73 9f bb 3f
       -0.08307289172518723 0.10790179569205784
000130 0b 17 90 e6 4e 1b bf bf 31 c0 79 d4 2a 87 85 bf
       -0.12151044014907712 -0.010511717423668273
000140 65 1b 6f 17 12 6f b8 3f 1d ce 58 21 92 22 a9 bf
       0.0954448039256995 -0.04909187943522062
000150 d4 35 38 78 de 86 c1 3f 7e 73 58 f3 4d dc b0 3f
       0.13692837591263063 0.06586157980968996
000160 7b 21 67 b1 72 bd b2 bf 80 12 51 57 2d dc b5 bf
       -0.07320324736713772 -0.08539088613276569
000170 37 f5 75 65 94 21 8a 3f ae d1 36 87 22 9b 84 bf
       0.01275936064370829 -0.01006152129307555
000180 1a 6d c3 c6 0e de a2 bf 47 6e d7 f5 f9 3c 9b bf
       -0.036850415957554186 -0.026599794034934978
000190 ce 10 5f 65 75 20 69 bf a8 8e db ab 95 1a b1 bf
       -0.003067235268618607 -0.06681189962142275
0001a0 05 15 bd 3d cb 20 a9 3f 02 45 03 39 94 b9 95 3f
       0.04907832268376392 0.0212157401845774
0001b0 18 e6 ea e0 6f bd 95 3f e5 e9 e4 1b ef 0e b6 bf
       0.02123045740402149 -0.08616537505159945
0001c0 77 c7 43 69 5b fa ba bf b6 ab 05 c1 df e7 bd 3f
       -0.10538264579716193 0.11681936705069415
0001d0 57 53 1b 70 f8 89 b8 3f be 9b 0c ce 60 14 a0 bf
       0.09585526215535133 -0.03140547290086414
0001e0 4e 25 b8 ba 47 ff bc bf 68 e1 40 2c 25 cc b3 3f
       -0.11327026661469583 0.07733375864416348
0001f0 42 8a 18 cd c7 69 9a bf 39 e2 a7 e9 61 b5 b3 bf
       -0.025794145482118454 -0.076986426873085
000200 df b3 ae 38 63 1f a9 3f 43 a7 53 d4 85 06 94 3f
       0.04906759325908871 0.01955613239707722
000210 bf 89 88 f7 f8 c2 84 bf 9d c9 81 f5 f2 21 a6 3f
       -0.010137505582922366 0.043227760762323465
000220 ad 66 21 da 27 74 b3 bf 0d ad f4 91 f3 ac aa bf
       -0.07599114489985466 -0.05210076481520263
000230 36 84 7f 6e fb 26 c0 bf 01 d4 a6 69 ce 60 b1 3f
       -0.12618964095511992 0.06788339690577062
000240 d6 4e 26 28 76 9f af 3f 0c 54 37 ed 2f 26 c2 3f
       0.06176347007854381 0.14179038126772558
000250 e9 78 58 4b cf 73 b6 bf a8 f0 14 5d f6 93 c4 bf
       -0.08770461644641937 -0.16076545281419397
000260 05 40 4c d3 b7 a7 be bf 52 33 3f f2 72 59 ac bf
       -0.11974667462004625 -0.055369941779281576
000270 3d 09 03 1f 63 49 b3 3f 36 47 70 d6 5f f0 ac bf
       0.07533854968190652 -0.0565214108720639
000280 34 34 16 17 b5 b3 b0 3f 87 64 13 ce bf 16 8a 3f
       0.065242117058191 0.012738703228409655
000290 12 a9 ed e7 e9 02 c9 3f 7c e3 7f 3f 46 1d bb bf
       0.1954014189207745 -0.10591544199259134
0002a0 a1 f0 aa 36 24 c3 ce bf 75 43 82 f2 79 88 b1 3f
       -0.2403302447254463 0.06848871393800755
0002b0 26 19 dd 29 25 b2 95 3f c4 38 0d 45 fc 63 b7 bf
       0.02118738239303144 -0.09136940656501041
0002c0 69 d3 21 75 10 19 a3 bf 93 c6 0b a6 2e aa bf 3f
       -0.03730060033641431 0.12369052461488143
0002d0 11 4b ef 64 ce db af 3f 9f 3e 2a bd a1 52 b9 3f
       0.06222386343110576 0.09891711109434674
0002e0 1f 80 2d 2c 57 db ac bf d6 73 da 2f b8 b5 c2 bf
       -0.05636093534735686 -0.1461706384333456
0002f0 d8 eb e4 de 3b 81 bc bf 1f 10 e9 27 cd 52 9d bf
       -0.11134695235970982 -0.02863617473691715
000300 09 4b 98 7c c5 6d 90 3f 31 ed 1a 17 47 64 b4 bf
       0.01604374478308571 -0.07965511621562339
000310 79 ed ba ab e1 9c 93 bf e1 87 f1 cb 8e e5 93 bf
       -0.019153143030718554 -0.019430381009790557
000320 90 ab 77 5e 7f f8 86 bf 3c cf 91 62 42 eb 79 3f
       -0.011216158934038295 0.006327876392891171
000330 88 08 c1 65 46 e5 b6 3f ae a7 6e a6 bf 60 73 3f
       0.08943595871190457 0.004730938561729943
000340 63 9c df 21 2a 4e bf bf 23 5b aa 89 1e a1 b7 3f
       -0.12228644682873972 0.09230223523114182
000350 a6 4f 35 ba fa 0c b1 3f e6 c7 96 a0 99 8d 61 bf
       0.06660429998492975 -0.002142715504953141
000360 a3 29 ca 5a a0 ea a5 3f 4c 54 1d e8 5a dc 91 bf
       0.04280568226120642 -0.017442150513790985
000370 76 5f 11 ee 9e 62 b8 bf 71 4e 32 4d bf 44 bd 3f
       -0.09525483429149326 0.11433025011711508
000380 5d 22 67 15 51 ab c0 3f 46 99 76 60 84 d5 c8 3f
       0.13022817177831572 0.1940160246860591
000390 b6 43 f2 81 09 14 c2 3f 5a d2 f0 73 00 3f 9d 3f
       0.14123648495708857 0.028560645176371892
0003a0 95 a9 e7 a2 02 81 b6 bf ff c3 ea 09 60 07 9b 3f
       -0.08790604092761208 0.026395321469582452
0003b0 3b e0 7a 19 97 25 b8 bf d8 40 01 78 b7 e5 c9 3f
       -0.09432358142919466 0.202322896572247
0003c0 e7 46 f0 7e 9f 65 8c bf d5 fd 25 1c ab 5a a9 bf
       -0.013865705548627939 -0.049519869981846355
0003d0 83 5b 7b 9c 20 7f 93 bf 84 21 3c 0b 4e 11 ad bf
       -0.01903963999833592 -0.05677265059609041
0003e0 5c da 8b 32 65 70 b4 3f a7 54 8c 9c 2c 18 a3 bf
       0.07984001621285003 -0.037293809995540265
0003f0 4f b1 67 cc a6 67 8f 3f 35 58 2d 47 0e 2c 9a 3f
       0.015334418404528675 0.025558684438998298
000400 4a 2b cb 0e a3 8b 81 bf 41 26 51 1f b9 07 9f bf
       -0.008567117585149515 -0.03030289891856897
000410 86 b2 5b e4 6d 25 c4 bf f6 a9 30 26 5d f2 bb 3f
       -0.15739225054075606 0.10916692907691314
000420 91 ef 36 c0 1e ca b4 3f f7 6f 5f 8e f2 c6 87 3f
       0.08120910828341567 0.011609930963395227
000430 20 00 36 1e b7 2f c4 3f 4c 24 0f 4c e0 6a c6 bf
       0.15770615553992773 -0.17513660157990996
000440 b4 33 ca 6c 02 63 97 3f bf 45 87 40 58 85 aa bf
       0.022838628664022045 -0.05179858958912175
000450 9b 4b fe 91 6d 35 a8 3f ff 0f 2a 41 60 81 bb bf
       0.0472826233591583 -0.10744287100720838
000460 2e 44 b0 be 16 b2 92 3f bf 95 e7 a9 4c e5 81 3f
       0.01825748003836141 0.008738135275914936
000470 3a e1 98 55 06 8d b9 3f 91 70 7f c7 f5 ad b7 3f
       0.09980811681532922 0.0924981700949863
000480 72 ac 47 23 b1 7a c1 3f a7 e2 29 8f f6 c9 c4 bf
       0.1365567610040191 -0.1624134253541076
000490 df 15 2a 8a de 7f 92 bf 74 f1 80 7d 63 5b ad bf
       -0.018065907652745735 -0.05733786494281193
0004a0 1f 45 c8 13 14 b7 b4 3f 1e b5 62 cf 9d 0e b5 3f
       0.08091855509725975 0.08225427926182191
0004b0 0d 9c 1d 1c 72 ea c4 bf 90 2e cb f3 dc e2 b7 bf
       -0.16340471623263433 -0.09330540611261484
0004c0 0b 4f c4 40 49 19 a9 bf 27 27 40 9f 08 65 a4 3f
       -0.04902104297266704 0.0398333258054449
0004d0 c3 31 39 6f 95 e0 b7 3f 40 d0 60 7c 00 d1 ba bf
       0.09327062573829097 -0.10475161587311366
0004e0 00 ba df 07 c0 af 94 bf 6a 4a 86 b7 06 22 c7 bf
       -0.02020168350275675 -0.1807258983722762
0004f0 36 f1 de c4 b5 6c 50 bf e8 8c 2d ca 23 74 bc bf
       -0.00100248099214102 -0.11114715276703502
000500 8f bb ec 4d c8 c2 bf 3f 5c 62 6d 99 b4 84 ab bf
       0.12406589415034673 -0.05374683735744121
000510 d1 c8 3a 00 f2 fd a0 bf 4b 58 10 c8 25 ea 93 bf
       -0.03318744900515614 -0.019447889648369004
000520 ef c1 8a 3f d7 2d b4 3f 59 57 36 1c 9d 61 ab bf
       0.07882447530096902 -0.05347910851848665
000530 6b 89 fe 35 fc 9d be bf 64 40 06 e9 5d ae b1 3f
       -0.11959816282481987 0.06906687678406481
000540 9a 90 d7 aa aa 09 b7 3f 82 71 46 bc 8a 19 a4 3f
       0.08999125166843883 0.0392573695018852
000550 52 02 eb a7 dc 23 c7 bf e9 2d 02 91 e1 86 ad bf
       -0.18078191947099015 -0.057669686270937444
000560 59 75 3f b3 64 e0 a2 bf 66 6c fd 60 9d d6 b0 3f
       -0.03686823547443891 0.0657747613708338
000570 b5 4b d4 93 91 10 9f 3f 07 84 14 42 d2 57 86 3f
       0.030336641929419723 0.01090969337616522
000580 e6 39 44 e4 72 19 b4 bf c7 63 b3 c7 02 53 c3 bf
       -0.07851331780350498 -0.15097079039585834
000590 87 61 48 74 c8 e0 98 3f d3 9c 1b 55 dc 9f b0 bf
       0.024294979188284962 -0.0649392802985063
0005a0 af d7 64 09 85 de c5 bf c0 38 a5 0a 22 9d 96 3f
       -0.1708532615536433 0.022083789729827386
0005b0 1c 0c 41 dd c8 07 b0 3f 5b f6 92 aa 07 23 92 bf
       0.062618783967125 -0.01771175364114295
0005c0 6b 55 39 c2 63 27 67 3f 57 84 b3 aa d2 ab 94 bf
       0.0028263996517049936 -0.020186702412392368
0005d0 00 bd 5e b7 12 65 69 3f d8 18 b8 05 60 87 b7 bf
       0.003099953227284069 -0.09190940990092444
0005e0 1b a9 ce 95 f1 fa cd bf 6a c6 87 a7 8f f2 c2 3f
       -0.23422069372947693 0.14802737884706413
0005f0 a2 e9 64 4a db 26 c4 3f 12 fc 28 9d b9 a1 ae bf
       0.15743580944565588 -0.05982761424501616
000600 1d 35 a5 a6 89 1e b8 bf 08 33 f1 19 d5 42 74 bf
       -0.0942159683083514 -0.004946548869224861
000610 0b 9c 95 0e 5a be ad 3f fa b6 e1 21 a7 40 af bf
       0.05809289386780144 -0.06104013718218755
000620 ba 3b a6 bc db fe b3 bf 7d 76 d4 45 f6 ba 94 bf
       -0.07810757976243013 -0.020244453441696997
000630 3e 27 dc 31 d7 20 b9 3f b6 4d 37 8c ed 8e b3 bf
       0.0981573578575565 -0.07639965699427517
000640 65 81 ae d2 4c f5 c2 bf 73 1d 24 7a 8e 9a b9 3f
       -0.14811096465292475 0.10001459581336807
000650 c7 1a 8a ad d2 f2 b7 3f 34 32 ae 65 1a 91 b5 3f
       0.09354893433383459 0.0842453478091521
000660 2c 66 86 4d ba 33 ad bf 99 4a a2 cd 48 e9 92 3f
       -0.05703527637815528 0.01846803431596786
000670 8b 3d b3 1a eb 22 81 bf 8c b1 8d 0b 88 2e aa bf
       -0.008367382767032768 -0.05113625660928553
000680 84 ae 09 57 1b b1 a7 bf 73 16 e4 3d 3a 0f 91 3f
       -0.046273092627271445 0.01665965082886207
000690 35 e6 06 56 5f d8 85 3f 05 6b 32 de 8e 4f 79 bf
       0.01066660386355798 -0.00617938812060959
0006a0 00 0d cc 35 1a 2f b5 bf ab 5f 12 0f 04 61 bd bf
       -0.08274997533230888 -0.11476159446681204
0006b0 a3 8f 84 67 21 92 a7 bf 01 d0 e1 91 68 77 b1 bf
       -0.04603676212926124 -0.06822827874731276
0006c0 6b b1 a6 24 73 87 a7 3f 14 96 f4 8c 73 bc b1 3f
       0.04595527479554814 0.06928178969663917
0006d0 45 d4 e7 e6 ff 70 a2 3f 05 9d 0b 44 96 66 b4 bf
       0.03601836866065659 -0.07969035302413736
0006e0 63 e2 5c 25 2a cc bb 3f 8f 2b d5 70 5b 72 b8 bf
       0.10858405506304218 -0.09549495224670877
0006f0 bd 3b 4d 60 45 9d aa bf 75 1d 5b bc b7 5b a3 3f
       -0.05198113251264356 0.03780912565485554
000700 d7 41 93 58 ee e0 7c 3f bb c9 4f 41 76 81 83 3f
       0.007050448454905176 0.009524272792963076
000710 f3 7f a7 f3 f0 6e a1 3f 3d 5b 26 e1 6a 22 b3 3f
       0.03404953932090384 0.07474391934225096
000720 3c 59 06 22 98 e3 b1 bf e5 45 20 9f 5f 44 94 bf
       -0.06987906294520924 -0.019792074286732037
000730 a1 f5 41 60 85 4c 81 3f 35 9e 6e fc ca e7 a2 3f
       0.00844673347477959 0.036924689592805406
000740 57 fe 94 d3 3a 24 9e 3f db 29 88 c9 a9 fb 9b bf
       0.0294350806846054 -0.027327206540613474
000750 6c 9a 0b e0 0f e9 c7 3f fd 8c b2 37 08 26 c0 bf
       0.18679998817170274 -0.1261606475792191
000760 b6 1c 92 bb a4 e1 79 3f fe 1d 42 ef 79 59 b9 3f
       0.006318706023314016 0.09902155009523736
000770 c9 69 5a aa 03 d9 80 3f 98 f8 0a be fe af b0 3f
       0.008226421962992074 0.06518547191351087
000780 37 be d9 39 bf 67 b1 3f a4 9f d5 79 56 87 87 3f
       0.06798930322997242 0.0114886051112107
000790 82 fe 22 68 55 75 a6 3f 7c 99 a0 fa fa f3 ba bf
       0.04386393448066618 -0.1052853452571067
0007a0 95 89 3e 57 4b 37 bf 3f 21 41 ce 1f fb 16 c3 3f
       0.12193747405993911 0.14913882306110174
0007b0 b1 dd 19 86 b8 15 ba bf bb 52 19 3b df 07 7d bf
       -0.1018939330477824 -0.0070875854449538546
0007c0 44 39 fc 41 58 37 c4 3f 9d cb 78 45 29 30 b4 bf
       0.15793898794113137 -0.07885988184061295
0007d0 3f 1b 4e 18 a1 00 b3 bf df c0 0c 7d 66 08 c0 3f
       -0.07422835200678167 0.1252563582033934
0007e0 54 01 d6 3b be 39 95 bf 47 ce 45 3c 1f ac b5 3f
       -0.020728084947678596 0.08465762349606464
0007f0 75 57 d1 3a 1a f1 b1 3f c3 78 05 ff 45 74 92 3f
       0.0700851815793991 0.018021672907132535

bias_0 f8 [256]
000000 00 00 00 00 00 00 00 00 00 00 00 00 00 00 00 00
       0.0 0.0
000010 00 00 00 00 00 00 00 00 00 00 00 00 00 00 00 00
       0.0 0.0
000020 00 00 00 00 00 00 00 00 00 00 00 00 00 00 00 00
       0.0 0.0
000030 00 00 00 00 00 00 00 00 00 00 00 00 00 00 00 00
       0.0 0.0
000040 00 00 00 00 00 00 00 00 00 00 00 00 00 00 00 00
       0.0 0.0
000050 00 00 00 00 00 00 00 00 00 00 00 00 00 00 00 00
       0.0 0.0
000060 00 00 00 00 00 00 00 00 00 00 00 00 00 00 00 00
       0.0 0.0
000070 00 00 00 00 00 00 00 00 00 00 00 00 00 00 00 00
       0.0 0.0
000080 00 00 00 00 00 00 00 00 00 00 00 00 00 00 00 00
       0.0 0.0
000090 00 00 00 00 00 00 00 00 00 00 00 00 00 00 00 00
       0.0 0.0
0000a0 00 00 00 00 00 00 00 00 00 00 00 00 00 00 00 00
       0.0 0.0
0000b0 00 00 00 00 00 00 00 00 00 00 00 00 00 00 00 00
       0.0 0.0
0000c0 00 00 00 00 00 00 00 00 00 00 00 00 00 00 00 00
       0.0 0.0
0000d0 00 00 00 00 00 00 00 00 00 00 00 00 00 00 00 00
       0.0 0.0
0000e0 00 00 00 00 00 00 00 00 00 00 00 00 00 00 00 00
       0.0 0.0
0000f0 00 00 00 00 00 00 00 00 00 00 00 00 00 00 00 00
       0.0 0.0
000100 00 00 00 00 00 00 00 00 00 00 00 00 00 00 00 00
       0.0 0.0
000110 00 00 00 00 00 00 00 00 00 00 00 00 00 00 00 00
       0.0 0.0
000120 00 00 00 00 00 00 00 00 00 00 00 00 00 00 00 00
       0.0 0.0
000130 00 00 00 00 00 00 00 00 00 00 00 00 00 00 00 00
       0.0 0.0
000140 00 00 00 00 00 00 00 00 00 00 00 00 00 00 00 00
       0.0 0.0
000150 00 00 00 00 00 00 00 00 00 00 00 00 00 00 00 00
       0.0 0.0
000160 00 00 00 00 00 00 00 00 00 00 00 00 00 00 00 00
       0.0 0.0
000170 00 00 00 00 00 00 00 00 00 00 00 00 00 00 00 00
       0.0 0.0
000180 00 00 00 00 00 00 00 00 00 00 00 00 00 00 00 00
       0.0 0.0
000190 00 00 00 00 00 00 00 00 00 00 00 00 00 00 00 00
       0.0 0.0
0001a0 00 00 00 00 00 00 00 00 00 00 00 00 00 00 00 00
       0.0 0.0
0001b0 00 00 00 00 00 00 00 00 00 00 00 00 00 00 00 00
       0.0 0.0
0001c0 00 00 00 00 00 00 00 00 00 00 00 00 00 00 00 00
       0.0 0.0
0001d0 00 00 00 00 00 00 00 00 00 00 00 00 00 00 00 00
       0.0 0.0
0001e0 00 00 00 00 00 00 00 00 00 00 00 00 00 00 00 00
       0.0 0.0
0001f0 00 00 00 00 00 00 00 00 00 00 00 00 00 00 00 00
       0.0 0.0
000200 00 00 00 00 00 00 00 00 00 00 00 00 00 00 00 00
       0.0 0.0
000210 00 00 00 00 00 00 00 00 00 00 00 00 00 00 00 00
       0.0 0.0
000220 00 00 00 00 00 00 00 00 00 00 00 00 00 00 00 00
       0.0 0.0
000230 00 00 00 00 00 00 00 00 00 00 00 00 00 00 00 00
       0.0 0.0
000240 00 00 00 00 00 00 00 00 00 00 00 00 00 00 00 00
       0.0 0.0
000250 00 00 00 00 00 00 00 00 00 00 00 00 00 00 00 00
       0.0 0.0
000260 00 00 00 00 00 00 00 00 00 00 00 00 00 00 00 00
       0.0 0.0
000270 00 00 00 00 00 00 00 00 00 00 00 00 00 00 00 00
       0.0 0.0
000280 00 00 00 00 00 00 00 00 00 00 00 00 00 00 00 00
       0.0 0.0
000290 00 00 00 00 00 00 00 00 00 00 00 00 00 00 00 00
       0.0 0.0
0002a0 00 00 00 00 00 00 00 00 00 00 00 00 00 00 00 00
       0.0 0.0
0002b0 00 00 00 00 00 00 00 00 00 00 00 00 00 00 00 00
       0.0 0.0
0002c0 00 00 00 00 00 00 00 00 00 00 00 00 00 00 00 00
       0.0 0.0
0002d0 00 00 00 00 00 00 00 00 00 00 00 00 00 00 00 00
       0.0 0.0
0002e0 00 00 00 00 00 00 00 00 00 00 00 00 00 00 00 00
       0.0 0.0
0002f0 00 00 00 00 00 00 00 00 00 00 00 00 00 00 00 00
       0.0 0.0
000300 00 00 00 00 00 00 00 00 00 00 00 00 00 00 00 00
       0.0 0.0
000310 00 00 00 00 00 00 00 00 00 00 00 00 00 00 00 00
       0.0 0.0
000320 00 00 00 00 00 00 00 00 00 00 00 00 00 00 00 00
       0.0 0.0
000330 00 00 00 00 00 00 00 00 00 00 00 00 00 00 00 00
       0.0 0.0
000340 00 00 00 00 00 00 00 00 00 00 00 00 00 00 00 00
       0.0 0.0
000350 00 00 00 00 00 00 00 00 00 00 00 00 00 00 00 00
       0.0 0.0
000360 00 00 00 00 00 00 00 00 00 00 00 00 00 00 00 00
       0.0 0.0
000370 00 00 00 00 00 00 00 00 00 00 00 00 00 00 00 00
       0.0 0.0
000380 00 00 00 00 00 00 00 00 00 00 00 00 00 00 00 00
       0.0 0.0
000390 00 00 00 00 00 00 00 00 00 00 00 00 00 00 00 00
       0.0 0.0
0003a0 00 00 00 00 00 00 00 00 00 00 00 00 00 00 00 00
       0.0 0.0
0003b0 00 00 00 00 00 00 00 00 00 00 00 00 00 00 00 00
       0.0 0.0
0003c0 00 00 00 00 00 00 00 00 00 00 00 00 00 00 00 00
       0.0 0.0
0003d0 00 00 00 00 00 00 00 00 00 00 00 00 00 00 00 00
       0.0 0.0
0003e0 00 00 00 00 00 00 00 00 00 00 00 00 00 00 00 00
       0.0 0.0
0003f0 00 00 00 00 00 00 00 00 00 00 00 00 00 00 00 00
       0.0 0.0
000400 00 00 00 00 00 00 00 00 00 00 00 00 00 00 00 00
       0.0 0.0
000410 00 00 00 00 00 00 00 00 00 00 00 00 00 00 00 00
       0.0 0.0
000420 00 00 00 00 00 00 00 00 00 00 00 00 00 00 00 00
       0.0 0.0
000430 00 00 00 00 00 00 00 00 00 00 00 00 00 00 00 00
       0.0 0.0
000440 00 00 00 00 00 00 00 00 00 00 00 00 00 00 00 00
       0.0 0.0
000450 00 00 00 00 00 00 00 00 00 00 00 00 00 00 00 00
       0.0 0.0
000460 00 00 00 00 00 00 00 00 00 00 00 00 00 00 00 00
       0.0 0.0
000470 00 00 00 00 00 00 00 00 00 00 00 00 00 00 00 00
       0.0 0.0
000480 00 00 00 00 00 00 00 00 00 00 00 00 00 00 00 00
       0.0 0.0
000490 00 00 00 00 00 00 00 00 00 00 00 00 00 00 00 00
       0.0 0.0
0004a0 00 00 00 00 00 00 00 00 00 00 00 00 00 00 00 00
       0.0 0.0
0004b0 00 00 00 00 00 00 00 00 00 00 00 00 00 00 00 00
       0.0 0.0
0004c0 00 00 00 00 00 00 00 00 00 00 00 00 00 00 00 00
       0.0 0.0
0004d0 00 00 00 00 00 00 00 00 00 00 00 00 00 00 00 00
       0.0 0.0
0004e0 00 00 00 00 00 00 00 00 00 00 00 00 00 00 00 00
       0.0 0.0
0004f0 00 00 00 00 00 00 00 00 00 00 00 00 00 00 00 00
       0.0 0.0
000500 00 00 00 00 00 00 00 00 00 00 00 00 00 00 00 00
       0.0 0.0
000510 00 00 00 00 00 00 00 00 00 00 00 00 00 00 00 00
       0.0 0.0
000520 00 00 00 00 00 00 00 00 00 00 00 00 00 00 00 00
       0.0 0.0
000530 00 00 00 00 00 00 00 00 00 00 00 00 00 00 00 00
       0.0 0.0
000540 00 00 00 00 00 00 00 00 00 00 00 00 00 00 00 00
       0.0 0.0
000550 00 00 00 00 00 00 00 00 00 00 00 00 00 00 00 00
       0.0 0.0
000560 00 00 00 00 00 00 00 00 00 00 00 00 00 00 00 00
       0.0 0.0
000570 00 00 00 00 00 00 00 00 00 00 00 00 00 00 00 00
       0.0 0.0
000580 00 00 00 00 00 00 00 00 00 00 00 00 00 00 00 00
       0.0 0.0
000590 00 00 00 00 00 00 00 00 00 00 00 00 00 00 00 00
       0.0 0.0
0005a0 00 00 00 00 00 00 00 00 00 00 00 00 00 00 00 00
       0.0 0.0
0005b0 00 00 00 00 00 00 00 00 00 00 00 00 00 00 00 00
       0.0 0.0
0005c0 00 00 00 00 00 00 00 00 00 00 00 00 00 00 00 00
       0.0 0.0
0005d0 00 00 00 00 00 00 00 00 00 00 00 00 00 00 00 00
       0.0 0.0
0005e0 00 00 00 00 00 00 00 00 00 00 00 00 00 00 00 00
       0.0 0.0
0005f0 00 00 00 00 00 00 00 00 00 00 00 00 00 00 00 00
       0.0 0.0
000600 00 00 00 00 00 00 00 00 00 00 00 00 00 00 00 00
       0.0 0.0
000610 00 00 00 00 00 00 00 00 00 00 00 00 00 00 00 00
       0.0 0.0
000620 00 00 00 00 00 00 00 00 00 00 00 00 00 00 00 00
       0.0 0.0
000630 00 00 00 00 00 00 00 00 00 00 00 00 00 00 00 00
       0.0 0.0
000640 00 00 00 00 00 00 00 00 00 00 00 00 00 00 00 00
       0.0 0.0
000650 00 00 00 00 00 00 00 00 00 00 00 00 00 00 00 00
       0.0 0.0
000660 00 00 00 00 00 00 00 00 00 00 00 00 00 00 00 00
       0.0 0.0
000670 00 00 00 00 00 00 00 00 00 00 00 00 00 00 00 00
       0.0 0.0
000680 00 00 00 00 00 00 00 00 00 00 00 00 00 00 00 00
       0.0 0.0
000690 00 00 00 00 00 00 00 00 00 00 00 00 00 00 00 00
       0.0 0.0
0006a0 00 00 00 00 00 00 00 00 00 00 00 00 00 00 00 00
       0.0 0.0
0006b0 00 00 00 00 00 00 00 00 00 00 00 00 00 00 00 00
       0.0 0.0
0006c0 00 00 00 00 00 00 00 00 00 00 00 00 00 00 00 00
       0.0 0.0
0006d0 00 00 00 00 00 00 00 00 00 00 00 00 00 00 00 00
       0.0 0.0
0006e0 00 00 00 00 00 00 00 00 00 00 00 00 00 00 00 00
       0.0 0.0
0006f0 00 00 00 00 00 00 00 00 00 00 00 00 00 00 00 00
       0.0 0.0
000700 00 00 00 00 00 00 00 00 00 00 00 00 00 00 00 00
       0.0 0.0
000710 00 00 00 00 00 00 00 00 00 00 00 00 00 00 00 00
       0.0 0.0
000720 00 00 00 00 00 00 00 00 00 00 00 00 00 00 00 00
       0.0 0.0
000730 00 00 00 00 00 00 00 00 00 00 00 00 00 00 00 00
       0.0 0.0
000740 00 00 00 00 00 00 00 00 00 00 00 00 00 00 00 00
       0.0 0.0
000750 00 00 00 00 00 00 00 00 00 00 00 00 00 00 00 00
       0.0 0.0
000760 00 00 00 00 00 00 00 00 00 00 00 00 00 00 00 00
       0.0 0.0
000770 00 00 00 00 00 00 00 00 00 00 00 00 00 00 00 00
       0.0 0.0
000780 00 00 00 00 00 00 00 00 00 00 00 00 00 00 00 00
       0.0 0.0
000790 00 00 00 00 00 00 00 00 00 00 00 00 00 00 00 00
       0.0 0.0
0007a0 00 00 00 00 00 00 00 00 00 00 00 00 00 00 00 00
       0.0 0.0
0007b0 00 00 00 00 00 00 00 00 00 00 00 00 00 00 00 00
       0.0 0.0
0007c0 00 00 00 00 00 00 00 00 00 00 00 00 00 00 00 00
       0.0 0.0
0007d0 00 00 00 00 00 00 00 00 00 00 00 00 00 00 00 00
       0.0 0.0
0007e0 00 00 00 00 00 00 00 00 00 00 00 00 00 00 00 00
       0.0 0.0
0007f0 00 00 00 00 00 00 00 00 00 00 00 00 00 00 00 00
       0.0 0.0
